src/pytorch/ctr/202509v3/criteo_ctr_model.onnx (onnx, 468594 bytes, 21 tensors)

fm_embedding.weight f4 [624, 39]
0.12088858 -0.014164559 0.05361284 -0.08812637 -0.04852568 0.05962711 0.09194663 -0.09464975
-0.049739785 0.12002041 -0.1388021 -0.015424466 0.011084779 -0.031916574 0.030253546 -0.07945862
0.14983162 0.06433902 -0.12697163 -0.10726222 0.10806244 0.14767441 -0.03727287 0.06575295
-0.0026279993 0.016938968 0.010889427 0.10947629 -0.12688044 0.14201634 -0.15819423 -0.013617403
0.13039507 -0.13050798 -0.14163691 -0.13182582 0.056388818 -0.14520228 0.038301382 0.14173801
-0.13134879 0.16601661 0.050261874 0.068013184 -0.19974808 -0.123560056 0.07758537 0.07700457
-0.024784788 0.11057192 0.03431593 0.04815619 -0.14112969 -0.05817402 -0.13156112 -0.031425413
-0.10752893 0.06645521 0.1072978 0.088362776 0.03446666 0.0051834723 -0.08762613 0.07787586
-0.06666338 0.028568286 -0.01862282 0.053622104 -0.035793617 0.026935676 -0.048961867 0.042690113
-0.052663755 0.16208509 0.11308471 -0.1406343 0.00030372816 0.0059042033 0.09423849 -0.13554157
-0.034231517 0.09013796 0.0142100165 0.2368659 -0.1184919 0.020533727 -0.06447622 -0.15253152
-0.19608499 -0.060730547 0.0065551256 0.01205026 0.10987562 -0.0036819659 -0.09451504 -0.0426374
-0.07469815 0.0057411767 0.060876492 0.21476108 0.02650659 -0.056603007 0.05056633 0.06805065
0.13842657 -0.02994979 0.12450906 -0.110900976 -0.09395273 0.14995387 0.07020358 -0.111771666
0.08759888 0.07691544 -0.12686537 0.023153596 -0.032970663 0.09076742 0.089492775 0.034779973
0.032670952 0.024741711 -0.17651366 0.16337638 -0.17552687 -0.037074305 0.003193505 0.00119552
0.092530936 -0.09537581 -0.095024504 0.029386995 -0.11477672 -0.11715761 -0.09545499 -0.14737524
-0.15375255 0.072972886 -0.01982401 0.15349962 -0.000760145 0.0071470533 0.05639595 0.0035230627
-0.010433797 -0.020122882 -0.17031716 0.075908065 0.03629074 -0.050569046 -0.12874883 0.0030675111
0.11761879 0.047677368 -0.12168838 -0.14234309 0.15406197 -0.13717744 -0.20553859 0.025936289
0.007473206 -0.23299105 0.19664201 0.030142056 -0.08024578 0.09527474 0.20667411 -0.08672968
-0.11386549 -0.124481685 0.017340364 0.031503018 -0.07099574 0.024914222 -0.10403388 -0.05582115
0.10869476 0.006566853 0.15405871 -0.12606402 -0.01836216 -0.02096206 0.077014044 -0.04856428
-0.021931313 -0.1529234 -0.1292116 0.11566999 0.055840466 0.03946936 0.12215391 -0.0027508147
-0.053903244 -0.14573438 0.07235988 0.12774055 0.004775483 -0.13666648 -0.19986802 -0.044985246
-0.09264957 0.15334442 0.045011774 0.015737489 -0.04585608 0.08444396 0.06662159 0.093299784
-0.04842426 -0.03727287 0.11756052 -0.08674385 -0.0988416 -0.14102495 -0.0778927 -0.0675336
-0.10428763 -0.070079006 0.019513978 -0.08959345 0.09735573 0.11971678 -0.12385839 0.11928124
-0.033973973 0.022419017 -0.034238227 0.042889018 0.063882336 -0.14700955 -0.04751288 0.11392601
-0.10489199 0.0030384753 0.012725772 -0.009304167 -0.12182797 0.17094658 -0.03229634 0.071484014
0.00798338 0.06296503 0.00011936704 0.08915821 -0.14605166 -0.06667747 0.015933912 -0.05770251
-0.1256503 0.11051855 -0.090162925 0.013279366 0.08379389 0.019072311 0.029405737 -0.07516908
00000000: 6f94 f73d 7712 68bc 2399 5b3d 997b b4bd
00000010: ddc2 46bd 8e3b 743d 844e bc3d bad7 c1bd
00000020: f2bb 4bbd 43cd f53d 2322 0ebe e6b6 7cbc
00000030: ef9c 353c f4ba 02bd 49d6 f73c 33bb a2bd
00000040: 766d 193e 2dc4 833d da04 02be 4bac dbbd
00000050: d74f dd3d f637 173e 70ab 18bd 7ca9 863d
00000060: 833a 2cbb 97c3 8a3c 9169 323c 1b35 e03d
00000070: f2ec 01be bb6c 113e abfd 21be 871b 5fbc
00000080: 4986 053e e2a3 05be 4409 11be 59fd 06be
00000090: f6f7 663d e8af 14be e9e1 1c3d c523 113e
000000a0: 4c80 06be 4200 2a3e 65df 4d3d 7f4a 8b3d
000000b0: c38a 4cbe 0e0d fdbd 14e5 9e3d 92b4 9d3d
000000c0: 7809 cbbc 8873 e23d dc8e 0c3d 6d3f 453d
000000d0: 4d84 10be e247 6ebd f5b7 06be efb7 00bd
000000e0: 2138 dcbd ab19 883d f3be db3d 8bf7 b43d
000000f0: ea2c 0d3d 1eda a93b 5475 b3bd 617d 9f3d
00000100: cf86 88bd 0a08 ea3c e28e 98bc daa2 5b3d
00000110: 549c 12bd 35a8 dc3c 3d8c 48bd d4db 2e3d
00000120: f3b5 57bd a2f9 253e f598 e73d 7002 10be
00000130: b43d 9f39 0c78 c13b 1c00 c13d 69cb 0abe
00000140: 5936 0cbd 409a b83d 21d1 683c f98c 723e
00000150: e2ab f2bd 5936 a83c 1c0c 84bd 3931 1cbe
00000160: 81ca 48be 98c0 78bd 61cc d63b 746e 453c
00000170: 7806 e13d 234d 71bb 1a91 c1bd 8ea4 2ebd
00000180: 58fb 98bd 7b20 bc3b a159 793d 54ea 5b3e
00000190: 5924 d93c 8ed8 67bd a41e 4f3d 245e 8b3d
000001a0: b2bf 0d3e 4359 f5bc 9bfe fe3d 0d20 e3bd
000001b0: 4a6a c0bd 828d 193e e5c6 8f3d 8be8 e4bd
000001c0: 0b67 b33d d885 9d3d ffe8 01be 9cac bd3c
000001d0: 3f0c 07bd 45e4 b93d fd47 b73d 7275 0e3d
000001e0: fad1 053d 21af ca3c ffbf 34be 234c 273e
000001f0: 51bd 33be 3adb 17bd 204a 513b ffb2 9c3a
00000200: dc80 bd3d 6554 c3bd 359c c2bd ffbc f03c
00000210: 0f10 ebbd 54f0 efbd e87d c3bd 89e9 16be
00000220: 4f71 1dbe cf72 953d f665 a2bc 012f 1d3e
00000230: 7844 47ba d431 ea3b 71ff 663d 2fe3 663b
00000240: 84f2 2abc bed8 a4bc 9f67 2ebe b075 9b3d
00000250: 99a5 143d 7d21 4fbd bcd6 03be 4c08 493b
00000260: 1fe2 f03d 5849 433d c237 f9bd 63c2 11be
00000270: 6cc2 1d3e 3e78 0cbe b578 52be 5778 d43c
00000280: cce1 f43b 3595 6ebe 865c 493e 79ec f63c
00000290: e657 a4bd 671f c33d 61a2 533e 559f b1bd
000002a0: 4f32 e9bd 41f0 febd 610d 8e3c 4f09 013d
000002b0: 3766 91bd e918 cc3c b70f d5bd b8a4 64bd
000002c0: 5c9b de3d c12e d73b 91c1 1d3e ed16 01be
000002d0: 3e6c 96bc a0b8 abbc 8ab9 9d3d 57eb 46bd
000002e0: 4ca9 b3bc f497 1cbe 0c50 04be 63e4 ec3d
000002f0: f9b8 643d a0aa 213d d42b fa3d 0347 34bb
00000300: a6c9 5cbd 653b 15be 6b31 943d 6bce 023e
00000310: a87b 9c3b 4cf2 0bbe 34aa 4cbe 7342 38bd
00000320: 0fbf bdbd 5206 1d3e 445e 383d e8eb 803c
00000330: 96d3 3bbd f4f0 ac3d e670 883d f513 bf3d
00000340: 8458 46bd 70ab 18bd 92c3 f03d c2a6 b1bd
00000350: 776d cabd d868 10be 3586 9fbd 0e4f 8abd
00000360: c194 d5bd 9585 8fbd c7db 9f3c c57c b7bd
00000370: 7162 c73d 122e f53d 78a9 fdbd b949 f43d
00000380: 4b28 0bbd 16a8 b73c 623d 0cbd 65ac 2f3d
00000390: bed4 823d ac89 16be de9c 42bd 0a52 e93d
000003a0: 9dd1 d6bd 2821 473b c27f 503c 8170 18bc
000003b0: f180 f9bd 9f0c 2f3e 2b49 04bd 3666 923d
000003c0: b9cc 023c cff3 803d b154 fa38 9498 b63d
000003d0: 918e 15be 338e 88bd d687 823c 7859 6cbd
000003e0: 79aa 00be 8d57 e23d 57a7 b8bd b391 593c
000003f0: 229c ab3d 893d 9c3c 4de4 f03c 3ff2 99bd

fm_embedding.bias f4 [624]
-0.006300524 -0.101999454 0.014475534 -0.030612506 0.045279797 0.08282738 -0.012152082 0.13545583
0.14037502 0.022365505 -0.029612612 0.122560374 0.007451538 -0.13399018 0.06948205 0.03747326
0.0099083455 -0.10610386 -0.14081219 0.10758004 -0.14727557 -0.017805316 -0.1509768 -0.06992846
0.13268553 0.14170863 -0.010320848 -0.09182845 -0.022152675 -0.119646944 0.042964913 -0.00946726
0.0748983 -0.08089513 0.0904363 -0.00999947 -0.13210341 -0.10183472 0.03246712 0.13806996
-0.13673079 -0.025753574 0.00923027 -0.117517225 -0.15455826 0.029457891 -0.043686774 0.1237298
-0.12697579 -0.060278118 -0.09091398 -0.044385254 0.07582701 0.020586729 -0.08923604 -0.0012398135
0.020813689 0.044688832 -0.055102214 -0.08598496 0.001541216 -0.123619504 0.09046864 -0.06861744
-0.11459667 -0.021323945 0.033704538 0.031533964 0.05040768 0.054539245 0.12826265 -0.13361965
0.08801402 0.09189231 0.11719925 -0.036039565 -0.021168645 0.115836926 -0.025199167 -0.02704852
-0.17504962 -0.083379865 -0.12884204 0.019798018 0.0867072 0.12944669 0.015875423 -0.14861591
0.0381541 -0.0977657 0.036602452 0.13853455 -0.04631787 -0.10373233 -0.012375821 -0.067834415
-0.05154353 -0.14803693 -0.09344297 0.01198451 0.04749369 -0.16076225 0.10823563 0.14817089
0.16731687 -0.12463841 0.004875538 -0.01905782 0.1407502 0.12272204 -0.03397559 -0.09759004
-0.031273875 0.03624618 0.15755956 0.056674827 -0.15658808 -0.16841714 -0.096693054 -0.09949847
0.0254376 -0.0036981408 0.025540903 -0.103995405 0.03924938 0.06448189 -0.13147414 -0.14370471
-0.04908581 -0.085823596 0.09287344 0.13485488 -0.052638013 -0.022320079 -0.075230874 0.15366025
-0.055327676 0.16443841 0.002562303 -0.1116435 -0.01673922 -0.07103898 -0.06695865 -0.15868366
-0.0563156 0.004291369 0.064470775 0.1140921 0.0071038036 0.0045838556 0.14679888 -0.07362657
0.055253223 0.16695184 -0.07669884 -0.1259829 0.11337761 -0.13275865 -0.1335098 -0.067981474
-0.039946806 0.040629543 0.05705698 0.06761729 0.10245237 -0.10666873 0.07624977 -0.053184155
0.1415293 0.08919617 0.053207558 0.08274056 -0.08658387 -0.06585761 0.0044920463 0.09826507
-0.039428532 0.06974295 -0.058315318 -0.009490296 0.023039209 -0.14940341 0.112781964 -0.051391035
-0.11247828 0.048060305 -0.11116808 -0.025345491 -0.0016778985 -0.1362079 -0.15186197 0.096176274
-0.011904277 -0.1422181 0.11945901 0.15056014 0.08247705 -0.030640244 -0.11654179 0.043940775
0.031048324 0.049449626 0.10389983 -0.045205846 0.0458725 0.023405073 0.12392343 -0.06830347
0.10249843 -0.15900221 0.0681138 -0.120058335 -0.1021848 0.09805883 0.11863416 0.00032703762
-0.13844179 0.14239869 -0.13233586 0.11084939 -0.054702703 0.02781297 0.04078217 -0.031963196
0.037254922 0.031719342 0.03530763 -0.0050884862 -0.095621794 -0.0112341065 -0.07534844 0.1553349
-0.0632848 -0.10081983 0.005534777 -0.028245954 0.081903495 -0.009696968 0.13010398 0.032594454
-0.06734315 -0.045492988 0.07720047 0.11118308 0.109415464 0.00010813924 0.1451457 -0.13363855
-0.0015596695 -0.011740974 0.07837041 -0.10121037 -0.06746311 0.025084397 0.008011875 -0.07733824
00000000: a074 cebb 17e5 d0bd ca2a 6d3c 14c7 fabc
00000010: 4f77 393d 67a1 a93d 8719 47bc efb4 0a3e
00000020: 78be 0f3e dd37 b73c 2696 f2bc ef00 fb3d
00000030: 082c f43b b934 09be 9b4c 8e3d 907d 193d
00000040: 9d56 223c fb4c d9bd 1231 10be ed52 dc3d
00000050: 68cf 16be 74dc 91bc aa99 1abe a736 8fbd
00000060: b7de 073e 111c 113e c618 29bc 8e10 bcbd
00000070: 8779 b5bc 7509 f5bd fafb 2f3d 911c 1bbc
00000080: 4864 993d 59ac a5bd ab36 b93d d1d4 23bc
00000090: 1e46 07be b98e d0bd 3efc 043d 3662 0d3e
000000a0: 2803 0cbe 29f9 d2bc 8f3a 173c dfac f0bd
000000b0: 8544 1ebe ad51 f13c e7f0 32bd 0d66 fd3d
000000c0: f105 02be 30e6 76bd 1c31 babd 50cd 35bd
000000d0: 314b 9b3d 80a5 a83c 63c1 b6bd 3d81 a2ba
000000e0: 7881 aa3c a30b 373d dcb2 61bd e218 b0bd
000000f0: a102 ca3a 392c fdbd 9f47 b93d 4d87 8cbd
00000100: a9b1 eabd 8eaf aebc c50d 0a3d c229 013d
00000110: 4978 4e3d 8b64 5f3d 4957 033e 97d3 08be
00000120: b240 b43d 0932 bc3d 2906 f03d 399e 13bd
00000130: de69 adbc e93b ed3d 7c6e cebc dc94 ddbc
00000140: 3540 33be 10c3 aabd 2bef 03be 742f a23c
00000150: 8b93 b13d ac8d 043e 2d0d 823c c52e 18be
00000160: 7947 1c3d 6239 c8bd 74ec 153d 00dc 0d3e
00000170: cfb7 3dbd 9e71 d4bd f5c3 4abc c5ec 8abd
00000180: 4f1f 53bd fe96 17be 075f bfbd ae5a 443c
00000190: be88 423d dc9e 24be a4aa dd3d 1cba 173e
000001a0: 1d55 2b3e 6c42 ffbd fac2 9f3b 251f 9cbc
000001b0: d220 103e b155 fb3d fd29 0bbd 49dd c7bd
000001c0: 0919 00bd e076 143d 4b57 213e dd23 683d
000001d0: a058 20be 8b75 2cbe 0207 c6bd dbc5 cbbd
000001e0: 8462 d03c 825c 72bb 283b d13c 8bfb d4bd
000001f0: f5c3 203d 150f 843d 28a1 06be 5427 13be
00000200: 340e 49bd 48c4 afbd 6e34 be3d 6617 0a3e
00000210: f59a 57bd 99d8 b6bc a512 9abd 1d59 1d3e
00000220: 469f 62bd 8b62 283e 50ec 273b 59a5 e4bd
00000230: b020 89bc e27c 91bd 9e21 89bd f87d 22be
00000240: 30ab 66bd 9d9e 8c3b 4109 843d 1ea9 e93d
00000250: 06c7 e83b 2b34 963b 7252 163e 87c9 96bd
00000260: 3451 623d 6cf5 2a3e 4814 9dbd a901 01be
00000270: 8532 e83d e2f1 07be cbb6 08be df39 8bbd
00000280: 439f 23bd 2a6b 263d 94b4 693d ef7a 8a3d
00000290: 8cd2 d13d 2375 dabd d728 9c3d a1d7 59bd
000002a0: 0fed 103e 7bac b63d 2bf0 593d e273 a93d
000002b0: e252 b1bd 5be0 86bd 0432 933b 323f c93d
000002c0: d07f 21bd 64d5 8e3d 0bdc 6ebd 307d 1bbc
000002d0: b9bc bc3c 35fd 18be 3bfa e63d 687f 52bd
000002e0: 035b e6bd e2da 443d 17ac e3bd 59a1 cfbc
000002f0: eeec dbba 157a 0bbe b481 1bbe 11f8 c43d
00000300: 280a 43bc 9fa1 11be eda6 f43d 702c 1a3e
00000310: bae9 a83d 4001 fbbc 76ad eebd 3efb 333d
00000320: 0e59 fe3c b18b 4a3d 6fc9 d43d c429 39bd
00000330: cde4 3b3d ffbb bf3c 91cb fd3d b1e2 8bbd
00000340: b2ea d13d 7ad1 22be 3f7f 8b3d 25e1 f5bd
00000350: 4446 d1bd 11d3 c83d 77f6 f23d 3f76 ab39
00000360: afc3 0dbe f6d0 113e 0d83 07be 0105 e33d
00000370: f10f 60bd 07d8 e33c 340b 273d d7eb 02bd
00000380: 9e98 183d 24ec 013d bc9e 103d 51bd a6bb
00000390: 5cd5 c3bd 420f 38bc 4850 9abd 1d10 1f3e
000003a0: 769b 81bd a17a cebd 135d b53b 0f64 e7bc
000003b0: 05bd a73d 08e0 1ebc fa39 053e c381 053d
000003c0: 35eb 89bd db56 3abd 481b 9e3d f4b3 e33d
000003d0: 3715 e03d d0c8 e238 13a1 143e 8bd8 08be
000003e0: d36d ccba 375d 40bc aa80 a03d 6247 cfbd
000003f0: 192a 8abd cb7d cd3c 3d44 033c 8363 9ebd

dnn.0.weight f4 [128, 624]
-0.04754071 0.012958038 0.034340225 -0.07587978 -0.03141171 -0.028695112 0.06880168 -0.05475465
-0.016207809 0.0018441734 -0.1121764 0.017156228 -0.09828769 -0.108250946 -0.026764277 0.010938555
0.0070647066 -0.090353034 0.045259636 0.001890346 -0.108275615 0.029510748 0.008342779 0.018653667
-0.018647691 -0.06266984 -0.01331311 0.0086652255 0.047799192 0.02617543 0.06551869 0.061515827
-0.017118873 0.008101162 0.055562336 0.029899444 0.027293008 0.006511616 -0.032195006 0.06214776
0.00097343314 0.06060984 0.03637693 0.013797999 -0.011175118 -0.012177591 -0.046132613 -0.039788693
0.028254008 -0.09462753 -0.057152435 0.04524748 -0.12600824 0.11364185 0.012905961 -0.05900672
0.010430071 0.014923526 -0.014810159 -0.0024652076 0.0685811 -0.028685788 0.13525674 0.02205383
0.09501582 -0.0149253635 0.06904939 -0.030752635 -0.0067275027 0.097961254 0.10163469 -0.030492233
0.073110804 -0.0637488 -0.03639198 -0.06768306 -0.021496804 -0.019623129 -0.0732846 0.09422315
-0.025314623 -0.003845495 0.051623523 -0.06942812 -0.07744692 0.019990403 -0.06859706 -0.11800173
0.021283505 0.096677944 -0.032869216 0.08158518 -0.03209835 -0.02048394 -0.00691503 0.058711663
0.011416154 -0.09715313 0.012167059 -0.046923913 0.018985119 0.011660882 0.0022350764 0.016947472
0.0631341 0.006631096 0.015421195 -0.0038212063 0.006454506 -0.03645093 0.025871651 -0.005692516
-0.07813102 0.065480396 0.10454587 -0.101730675 -0.15185855 -0.011366822 0.030046228 0.0054507493
-0.018550867 -0.06863093 0.0065883133 -0.0053632427 -0.04038824 -0.014840984 -0.012982837 0.07410845
-0.036705736 0.0042547775 0.03607655 -0.011959085 0.00986157 0.010720236 0.022221094 0.032149397
0.033719826 -0.009470911 -0.07179519 0.0071445503 0.007975869 -0.0033253164 -0.06297146 0.062791936
0.06677423 0.01506642 0.05522417 0.00524236 0.017819261 0.12322172 -0.041355647 -0.036517747
0.04461503 -0.08490209 -0.0035842978 0.074379 0.030237885 0.0014806715 0.035999373 0.06637004
0.05653587 -0.051727053 0.027641905 0.039261494 -0.051052567 -0.01988741 -0.008317734 -0.0012697328
0.04892451 0.03884976 -0.07017647 -0.037547935 0.023010317 -0.05151164 0.017112019 0.121251546
-0.015130465 -0.042058904 -0.116802 -0.038650542 -0.027479086 0.07554128 -0.05868334 -0.029413063
-0.118166804 0.09390679 -0.048855834 0.015065182 0.05097634 0.010250451 -0.07461105 0.091452494
0.0034652757 -0.095893614 0.032397144 -0.0698503 -0.019386342 0.053537767 -0.015503523 0.03133493
0.0574926 0.024592146 0.08075489 0.012311101 -0.09157288 -0.1039573 0.045243688 0.09134066
0.088821754 -0.009095106 -0.022863494 0.022560395 0.027894646 -0.0340068 0.120515 -0.044817477
0.051314123 -0.04514329 -0.008434897 -0.026159462 -0.039181713 -0.00054994784 0.059795376 0.10723218
0.04867998 -0.03224593 0.015318074 0.08186808 -0.01409109 -0.068608135 -0.032675125 0.07416034
0.043050405 -0.107862346 0.0839357 0.122336075 0.0072879167 0.0033241808 0.027315224 0.080860585
-0.052563578 0.047757868 0.038023025 0.06185542 -0.05099373 0.00533228 0.03298285 -0.022640835
-0.0069653913 0.06119407 0.019056093 -0.016204748 0.049044143 0.024131753 0.06611254 -0.117158696
00000000: 0cba 42bd f34d 543c 56a8 0c3d dc66 9bbd
00000010: 91a9 00bd 0312 ebbc e5e7 8c3d 6946 60bd
00000020: 3dc6 84bc 31b8 f13a bebc e5bd 388b 8c3c
00000030: 0e4b c9bd acb2 ddbd c240 dbbc a037 333c
00000040: 0e7f e73b 030b b9bd 2b62 393d 7cc5 f73a
00000050: 9bbf ddbd 86c0 f13c 27b0 083c 93cf 983c
00000060: 0bc3 98bc 0c59 80bd 3b1f 5abc 97f8 0d3c
00000070: 16c9 433d db6d d63c aa2e 863d 05f8 7b3d
00000080: e13c 8cbc bcba 043c 5595 633d aeef f43c
00000090: 9695 df3c 655f d53b e9de 03bd a68e 7e3d
000000a0: fe2d 7f3a 0642 783d faff 143d 0111 623c
000000b0: d817 37bc 8584 47bc 8df5 3cbd 78f9 22bd
000000c0: f374 e73c 14cc c1bd ac18 6abd 6c55 393d
000000d0: 4e08 01be 0fbd e83d 8673 533c 08b1 71bd
000000e0: e3e2 2a3c ce81 743c 4fa6 72bc 528f 21bb
000000f0: 3f74 8c3d 75fe eabc be80 0a3e 3caa b43c
00000100: a797 c23d 8389 74bc c469 8d3d f3ec fbbc
00000110: 6272 dcbb e99f c83d d925 d03d d9ca f9bc
00000120: 1ebb 953d bb8e 82bd c20f 15bd 6b9d 8abd
00000130: 111a b0bc afc0 a0bc 3d16 96bd 11f8 c03d
00000140: 9d60 cfbc b304 7cbb 3073 533d 5530 8ebd
00000150: 7e9c 9ebd eac2 a33c 9e7c 8cbd e4aa f1bd
00000160: bf5a ae3c 16ff c53d dfa1 06bd 2116 a73d
00000170: 8f79 03bd f0cd a7bc 7a97 e2bb a47b 703d
00000180: d20a 3b3c 38f8 c6bd 5858 473c 4a33 40bd
00000190: ae86 9b3c 490d 3f3c 5c7a 123b 6dd5 8a3c
000001a0: 734c 813d aa49 d93b 2ea9 7c3c 346d 7abb
000001b0: 5280 d33b 924d 15bd c9f0 d33c 4988 babb
000001c0: 2803 a0bd 961a 863d 251c d63d 2c58 d0bd
000001d0: cf80 1bbe e83b 3abc 8223 f63c 339c b23b
000001e0: fdf7 97bc 5f8e 8cbd c7e2 d73b 24be afbb
000001f0: 246e 25bd 9927 73bc f7b5 54bc 2cc6 973d
00000200: c158 16bd a96b 8b3b 01c5 133d 0af0 43bc
00000210: 6c92 213c eea3 2f3c 0309 b63c 16af 033d
00000220: cd1d 0a3d e12b 1bbc 5b09 93bd d51c ea3b
00000230: 38ad 023c 8ded 59bb 2ef7 80bd 0f99 803d
00000240: edc0 883d 25d9 763c bd32 623d 1ac8 ab3b
00000250: b3f9 913c ab5b fc3d 8a64 29bd a293 15bd
00000260: 40be 363d 26e1 adbd 8ae6 6abb 0454 983d
00000270: 71b5 f73c 1713 c23a 1474 133d 04ed 873d
00000280: 2892 673d bfdf 53bd 4771 e23c a9d0 203d
00000290: 7f1c 51bd ecea a2bc 1b47 08bc 2a6d a6ba
000002a0: 1165 483d ed20 1f3d aeb8 8fbd ddcb 19bd
000002b0: 2280 bc3c dffd 52bd 812e 8c3c bb52 f83d
000002c0: c5e5 77bc f545 2cbd e335 efbd 0850 1ebd
000002d0: d21b e1bc 63b5 9a3d f15d 70bd aaf3 f0bc
000002e0: 7001 f2bd 3452 c03d 0e1d 48bd f4d3 763c
000002f0: 91cc 503d 82f1 273c aecd 98bd 724b bb3d
00000300: ae19 633b df63 c4bd deb2 043d ad0d 8fbd
00000310: 1bd0 9ebc 6b4a 5b3d 7d02 7ebc 0e59 003d
00000320: 5c7d 6b3d 7875 c93c d262 a53d 80b4 493c
00000330: 908a bbbd 91e7 d4bd 7251 393d d010 bb3d
00000340: 2ee8 b53d a403 15bc 394c bbbc 94d0 b83c
00000350: 5083 e43c b74a 0bbd 91d0 f63d 8892 37bd
00000360: c22e 523d 2ce8 38bd 8632 0abc 5e4c d6bc
00000370: 017d 20bd 602a 10ba ffeb 743d 8c9c db3d
00000380: a964 473d 4f14 04bd a9f8 7a3c 74aa a73d
00000390: 51de 66bc 6c82 8cbd 5ad6 05bd 60e1 973d
000003a0: 9f55 303d efe6 dcbd 7be6 ab3d 568b fa3d
000003b0: 7acf ee3b 80da 593b 2dc4 df3c 3c9a a53d
000003c0: e84c 57bd c19d 433d 08be 1b3d 1c5c 7d3d
000003d0: cdde 50bd 68ba ae3b 0619 073d 4679 b9bc
000003e0: f03d e4bb a2a6 7a3d 861b 9c3c d2bf 84bc
000003f0: 83e2 483d f4af c53c 0366 873d e6f0 efbd

dnn.0.bias f4 [128]
0.11379315 0.0013019436 0.009558575 0.047051974 0.20701976 0.037063837 -0.0010473658 0.03854031
-0.031492356 -0.010577962 0.10460498 0.0056944033 0.08714836 0.009099256 -0.025558155 0.060313694
-0.047218494 0.0037073013 -0.009781642 -0.018678118 -0.020279072 0.059998684 -0.012875455 0.1315671
0.14254534 0.10524209 -0.0399224 0.0037179578 0.06413428 0.036204346 0.034339473 0.0023908897
0.05618395 0.11168532 0.003566078 0.003707574 -0.028014086 -0.0178828 0.002830385 0.00019115851
0.049173273 0.14421023 0.121219605 0.01366316 0.2017371 -0.005538262 -0.012781912 -0.03542995
-0.01880806 -0.024315724 -0.0076251347 0.09889545 0.09633092 -0.035737846 -0.025896356 -0.014687313
-0.0034063635 0.03618653 -0.0025644153 0.014366278 -0.0048468453 0.0357224 -0.016839322 0.030470282
0.027410036 -0.001851743 0.006214145 0.019278664 -0.05074646 0.015234642 -0.00447412 0.0079978425
0.043368097 0.0067347395 -0.020476056 -0.009309509 -0.043283705 0.012381293 -0.024907293 0.00972751
-0.03244535 0.038296852 -0.013189513 -0.017309744 0.01684731 -0.012609949 0.065611735 -0.021253996
0.17504811 -0.012257682 0.006897887 -0.0036703353 0.13371786 0.005153371 -0.008423328 0.043107897
-0.026757808 0.029610217 -0.023151772 0.000112654074 0.006279815 0.012498769 0.013823308 -0.0004967103
0.018745378 0.0022964587 0.008349303 -0.01061256 0.053684436 0.0018688296 0.01387 -0.003819986
0.020949975 0.29847127 -0.0040116264 0.031684674 0.15075324 -0.035890948 -0.028287789 -0.0016349918
-0.0050511607 0.04692554 -0.016904686 -0.037239812 -0.010888075 -0.008731172 0.04650159 0.023773646
00000000: 620c e93d faa5 aa3a 929b 1c3c 92b9 403d
00000010: fdfc 533e 40d0 173d c447 89ba 72dc 1d3d
00000020: 21fe 00bd 304f 2dbc 233b d63d 1e98 ba3b
00000030: d77a b23d 0c15 153c 565f d1bc 7e0b 773d
00000040: 2e68 41bd 32f6 723b 2e43 20bc da02 99bc
00000050: 4c20 a6bc 2ec1 753d 93f3 52bc 87b9 063e
00000060: 68f7 113e 2a89 d73d ac85 23bd fba8 733b
00000070: d558 833d 024b 143d 8ca7 0c3d 79b0 1c3b
00000080: 2421 663d 46bb e43d dcb4 693b c5fa 723b
00000090: cc7d e5bc f37e 92bc fb7d 393b b971 4839
000000a0: ea69 493d d9ab 133e fc41 f83d 72db 5f3c
000000b0: 2c94 4e3e 4f7a b5bb 3a6b 51bc ff1e 11bd
000000c0: 5c13 9abc c531 c7bc 44dc f9bb b389 ca3d
000000d0: 2549 c53d d961 12bd 9824 d4bc 0ea3 70bc
000000e0: 4c3d 5fbb 5438 143d c00f 28bb 8a60 6b3c
000000f0: 49d2 9ebb a751 123d 9ef2 89bc d09c f93c
00000100: 038b e03c 2fb6 f2ba 07a0 cb3b 4aee 9d3c
00000110: 85db 4fbd b89a 793c a49b 92bb 6209 033c
00000120: bfa2 313d 17af dc3b 67bd a7bc e986 18bc
00000130: 414a 31bd e8da 4a3c 610a ccbc 2260 1f3c
00000140: 6ae5 04bd 29dd 1c3d d418 58bc 2acd 8dbc
00000150: 5f03 8a3c f699 4ebc 725f 863d dc1c aebc
00000160: d03f 333e 72d4 48bc ac07 e23b 028a 70bb
00000170: 56ed 083e 9cdd a83b 0002 0abc e891 303d
00000180: 3133 dbbc 2091 f23c c9a8 bdbc b240 ec38
00000190: e8c6 cd3b a3c7 4c3c 287b 623c aa35 02ba
000001a0: e88f 993c 2f80 163b 84cb 083c 4ee0 2dbc
000001b0: 36e4 5b3d 84f3 f43a ff3e 633c bb58 7abb
000001c0: 489f ab3c 3ad1 983e f673 83bb cac7 013d
000001d0: 0f5f 1a3e 6302 13bd cbbb e7bc 394d d6ba
000001e0: 3584 a5bb ff34 403d b27b 8abc c688 18bd
000001f0: e663 32bc 310d 0fbc 7478 3e3d f3c0 c23c

dnn.2.weight f4 [128]
1.0151098 0.8864023 0.8004585 0.97017884 1.1206464 0.9705253 0.93591774 0.8506386
0.9720211 0.9125567 0.9953747 0.9583153 0.96394116 0.96443135 0.86767054 1.0480807
0.8978736 0.8891209 0.8587163 0.99219537 0.8928585 1.081063 1.0250194 1.0891535
1.0407873 1.0062563 0.88764274 0.91148925 0.95081705 0.8992572 0.8958976 0.8945042
0.98643905 0.90120625 0.98278785 0.90545326 0.9852798 0.9289171 0.8752271 0.8314461
0.9443497 0.9790689 1.0190803 0.94873 1.1504734 0.8987914 0.8762562 0.9192039
0.8664644 0.84527844 0.86063224 0.95318705 0.96434164 0.9075408 0.9027461 0.90934205
0.8785025 0.9343239 0.9026525 1.0535578 0.83964056 0.92481387 0.9388424 0.9116308
0.8832527 1.0330511 0.9879536 0.87947875 0.9147052 0.92580014 0.9272275 0.86752427
0.9447616 0.9564534 0.88264 0.8872154 1.0180005 0.87347156 0.9116026 0.8444001
0.974959 0.8003449 0.83951336 0.90181 0.93214 0.8888243 0.95763403 0.8397676
0.9974114 0.93082684 0.96330076 0.9468657 1.0143874 0.8970302 0.8638573 0.9825221
0.9357237 0.9198162 0.96832997 0.9774833 0.8291862 0.8831701 0.89106023 0.8583292
0.92965615 0.9230251 0.9084879 0.8916469 0.9036229 0.9377756 0.8183545 0.8853734
0.8912406 1.3357059 0.9017492 0.86342335 1.0424483 1.0213089 0.86754185 0.9440014
0.90300804 0.92879504 0.93711406 0.9372678 0.8867503 0.92499745 1.0049815 0.9269407
00000000: 1eef 813f 43eb 623f d9ea 4c3f a45d 783f
00000010: 5771 8f3f 5974 783f 4e98 6f3f 74c3 593f
00000020: 60d6 783f 519d 693f e0d0 7e3f 2754 753f
00000030: d9c4 763f f9e4 763f a81f 5e3f 8227 863f
00000040: 0bdb 653f 6d9d 633f d5d4 5b3f 8400 7e3f
00000050: 6092 643f 4660 8a3f d633 833f 6269 8b3f
00000060: 8538 853f 02cd 803f 8e3c 633f 5c57 693f
00000070: bf68 733f b835 663f 8c59 653f 3afe 643f
00000080: 4587 7c3f 74b5 663f fc97 7b3f c9cb 673f
00000090: 4c3b 7c3f 83cd 6d3f e20e 603f a7d9 543f
000000a0: e7c0 713f 42a4 7a3f 3971 823f f8df 723f
000000b0: b642 933f 3117 663f 5452 603f f250 6b3f
000000c0: 9cd0 5d3f 2b64 583f 6552 5c3f 1104 743f
000000d0: 18df 763f 9854 683f 5e1a 673f a4ca 683f
000000e0: 8ae5 603f da2f 6f3f 3c14 673f fbda 863f
000000f0: aff2 563f 9ac0 6c3f fa57 703f a360 693f
00000100: d91c 623f 053b 843f 87ea 7c3f 8525 613f
00000110: 1f2a 6a3f 3d01 6d3f c85e 6d3f 1216 5e3f
00000120: e5db 713f 21da 743f b2f4 613f 8c20 633f
00000130: d74d 823f d59b 5f3f ca5e 693f 9b2a 583f
00000140: ea96 793f 67e3 4c3f 59ea 563f 05dd 663f
00000150: baa0 6e3f fd89 633f 8127 753f 02fb 563f
00000160: 5a56 7f3f ab4a 6e3f e19a 763f ca65 723f
00000170: 72d7 813f c5a3 653f c125 5d3f 9186 7b3f
00000180: 978b 6f3f 1379 6b3f 79e4 773f 583c 7a3f
00000190: 8c45 543f 7017 623f 861c 643f 76bb 5b3f
000001a0: f2fd 6d3f 5f4b 6c3f aa92 683f f942 643f
000001b0: d553 673f 1012 703f ae7f 513f d5a7 623f
000001c0: 5828 643f 69f8 aa3f 09d9 663f 5009 5d3f
000001d0: f26e 853f 40ba 823f 3917 5e3f 13aa 713f
000001e0: 892b 673f 83c5 6d3f b5e6 6f3f c8f0 6f3f
000001f0: 1102 633f a2cc 6c3f 3ca3 803f fc4b 6d3f

dnn.2.bias f4 [128]
-0.0444163 -0.11756825 0.04364443 0.13070507 0.07396828 -0.016240964 -0.02131924 0.04314021
0.016320912 0.07156833 0.0174945 0.043140743 0.07032696 0.046680503 0.017639486 0.0338948
0.0034622052 -0.006210544 -0.094429106 0.007872321 -0.01762073 0.039573148 0.05021028 -0.0073349425
0.10806736 0.0053793266 0.03141558 -0.0065028677 -0.03259833 0.027730897 -0.042963557 0.025841521
0.07005368 0.02016531 0.03939671 -0.008668748 -0.033557434 0.023846436 -0.0035908076 0.0017162093
-0.0058035874 0.081546426 -0.007259005 -0.033161517 0.09004785 0.057111178 0.004657701 0.07502538
0.05066003 0.008092959 -0.08162581 0.07704598 -0.022628676 0.005248808 -0.049437467 0.0033110413
-0.013670139 -0.01654666 -0.09623377 -0.04310726 -0.046805557 -0.016588796 -0.025725706 -0.025995176
0.051457338 -0.011657237 0.05977379 -0.10955909 0.005409211 0.03415812 -0.012585088 -0.07528925
-0.005850087 -0.014701933 0.032371625 0.036882095 -0.05507212 0.053097263 -0.06049019 0.055706825
0.027928948 0.08439404 0.012678241 -0.040842 0.029181672 0.104482695 0.073379055 0.008102123
-0.006932849 -0.033117265 -0.047086395 0.0036251706 0.05989244 0.11317674 0.079359904 -0.02917592
-0.08809808 0.059705913 -0.01811989 -0.07626526 -0.0560398 -0.050937932 -0.028796885 -0.011797197
-0.021316871 0.045620855 -0.039564367 -0.014295919 -0.107476085 -0.01019855 0.06741368 0.016558243
0.010820817 0.15531896 0.06485983 -0.0013984038 0.047646694 -0.074683055 0.048575867 0.04329531
0.075914755 0.0057487516 -0.0085837245 0.03239929 -0.13413943 0.03364768 0.08086595 -0.026960254
00000000: deed 35bd 9fc7 f0bd 80c4 323d 8dd7 053e
00000010: ae7c 973d c50b 85bc b0a5 aebc cab3 303d
00000020: 6fb3 853c 6b92 923d a050 8f3c 59b4 303d
00000030: 9507 903d 0e34 3f3d af80 903c 46d5 0a3d
00000040: 2ae6 623b d281 cbbb 0c64 c1bd e8fa 003c
00000050: 5959 90bc 7417 223d 4ba9 4d3d f559 f0bb
00000060: 6c52 dd3d 1045 b03b a0ad 003d 0216 d5bb
00000070: d485 05bd e82b e33c 8efa 2fbd 99b1 d33c
00000080: 4e78 8f3d b831 a53c 725e 213d 5d07 0ebc
00000090: 8573 09bd 9a59 c33c c153 6bbb 6ef2 e03a
000000a0: 052c bebb d001 a73d f3dc edbb 5fd4 07bd
000000b0: 026b b83d 69ed 693d a19f 983b e8a6 993d
000000c0: e480 4f3d 5598 043c 6f2b a7bd 48ca 9d3d
000000d0: c65f b9bc 31fe ab3b f17e 4abd 0efe 583b
000000e0: b8f8 5fbc dc8c 87bc 3616 c5bd 3d91 30bd
000000f0: 2fb7 3fbd 3ae5 87bc b7be d2bc d6f3 d4bc
00000100: eec4 523d fffd 3ebc 5dd5 743d 8460 e0bd
00000110: c03f b13b 63e9 0b3d af31 4ebc 4031 9abd
00000120: 16b2 bfbb 60e0 70bc 1c98 043d ae11 173d
00000130: 4e93 61bd 847c 593d 90c4 77bd d72c 643d
00000140: 40cb e43c c8d6 ac3d 66b8 4f3c f149 27bd
00000150: 670e ef3c 06fb d53d c247 963d c4be 043c
00000160: f42c e3bb f8a5 07bd aadd 40bd 4594 6d3b
00000170: c651 753d 35c9 e73d 7287 a23d 5702 efbc
00000180: c46c b4bd 308e 743d 2a70 94bc f630 9cbd
00000190: fd89 65bd 4ba4 50bd 72e7 ebbc 0849 41bc
000001a0: b8a0 aebc efdc 3a3d 3f0e 22bd 6e39 6abc
000001b0: 6c1c dcbd d217 27bc 2f10 8a3d 27a5 873c
000001c0: cc49 313c ef0b 1f3e 3bd5 843d a54a b7ba
000001d0: 2e29 433d 6ef3 98bd 7df7 463d 6c56 313d
000001e0: 3279 9b3d 0660 bc3b c0a2 0cbc 1eb5 043d
000001f0: d95b 09be 26d2 093d 0c9d a53d c0db dcbc

dnn.2.running_mean f4 [128]
1.0565276 61.71842 19.34775 2.6398988 5.349484 1.3738911 6.1998706 28.250738
0.7263391 8.727775 22.684055 28.00799 0.58021814 17.474043 0.36053547 3.9557672
5.0719156 46.207096 50.540646 18.991764 20.456244 12.097713 13.891259 6.6633797
6.7007737 14.696658 2.321115 50.637726 0.6069995 37.74745 33.82431 49.39003
13.693176 5.273375 8.627643 28.83067 15.182431 0.25755933 4.563739 58.637184
19.044683 11.142709 23.589834 6.8069086 9.468627 24.10434 17.791092 15.798787
1.6708673 5.9127316 87.51684 11.95919 11.738406 7.2729874 0.5334267 55.083977
29.111698 10.106777 21.781288 6.394238 39.756195 48.924793 18.92574 0.47774273
14.132232 25.986437 28.60443 18.826853 0.4421069 19.801785 17.801529 48.738758
5.2299438 7.499606 24.367033 22.03639 0.41427293 41.470062 24.9609 34.829933
19.339056 26.647427 41.92463 84.112305 0.901701 22.734915 15.701181 4.405362
5.823039 0.8928257 21.131575 15.030465 11.895039 6.899517 33.828243 8.293315
13.074691 10.379489 4.9666977 69.58382 37.475292 8.994421 19.038446 29.041355
36.76125 30.256947 4.868462 22.730019 36.57691 2.0947661 11.745545 50.24484
9.269834 19.56608 32.71245 2.451881 2.909882 26.079155 0.38173816 10.089776
30.345291 5.0149713 4.878643 14.252332 57.73014 19.573437 6.1557975 30.162882
00000000: 4c3c 873f a9df 7642 31c8 9a41 1af4 2840
00000010: f92e ab40 aadb af3f 5765 c640 8301 e241
00000020: 5cf1 393f f7a4 0b41 f278 b541 5d10 e041
00000030: 2d89 143f d7ca 8b41 1b98 b83e 4a2b 7d40
00000040: 224d a240 11d4 3842 9f29 4a42 22ef 9741
00000050: 63a6 a341 3c90 4141 9942 5e41 683a d540
00000060: bd6c d640 8325 6b41 268d 1440 088d 4a42
00000070: 5264 1b3f 64fd 1642 184c 0742 648f 4542
00000080: 4017 5b41 7dbf a840 d30a 0a41 36a5 e641
00000090: 3deb 7241 d1de 833e 260a 9240 7a8c 6a42
000000a0: 835b 9841 8948 3241 fbb7 bc41 32d2 d940
000000b0: 7f7f 1741 b0d5 c041 2854 8e41 d5c7 7c41
000000c0: fbde d53f 1935 bd40 9f08 af42 d858 3f41
000000d0: 83d0 3b41 50bc e840 a78e 083f fe55 5c42
000000e0: c2e4 e841 5cb5 2141 1440 ae41 999d cc40
000000f0: 5806 1f42 fdb2 4342 ea67 9741 b29a f43e
00000100: 9f1d 6241 39e4 cf41 dfd5 e441 659d 9641
00000110: d65b e23e 0e6a 9e41 8869 8e41 7df4 4242
00000120: b35b a740 c6fc ef40 afef c241 874a b041
00000130: 951b d43e 58e1 2542 ecaf c741 da51 0b42
00000140: 63b6 9a41 ee2d d541 d2b2 2742 8039 a842
00000150: e0d5 663f 1be1 b541 0a38 7b41 baf8 8c40
00000160: 5656 ba40 3a90 643f 770d a941 c97c 7041
00000170: 1452 3e41 d8c8 dc40 1f50 0742 6bb1 0441
00000180: ef31 5141 6312 2641 30ef 9e40 ea2a 8b42
00000190: b3e6 1542 26e9 0f41 bd4e 9841 b254 e841
000001a0: 850b 1342 3a0e f241 71ca 9b40 14d7 b541
000001b0: c14e 1242 a610 0640 c1ed 3b41 b7fa 4842
000001c0: 3d51 1441 5587 9c41 8cd9 0242 9eeb 1c40
000001d0: 823b 3a40 1ca2 d041 2f73 c33e b96f 2141
000001e0: 28c3 f241 a57a a040 d81d 9c40 8d09 6441
000001f0: aaeb 6642 6696 9c41 4bfc c440 954d f141

dnn.2.running_var f4 [128]
15.124699 3266.9402 1095.0596 50.00331 93.98782 19.70342 486.87048 1511.1204
19.402231 555.18677 460.15973 1778.2362 4.7700925 730.41394 2.0112536 88.54461
212.42665 4644.547 4609.3193 1273.2131 789.9204 457.9618 682.235 216.31691
171.0333 376.137 89.26591 2961.207 4.9682975 1456.8113 1669.5548 4442.8086
489.39883 156.77127 366.15085 1590.9061 1021.93463 2.562281 142.12169 4554.935
804.1518 304.3649 648.17236 463.6883 182.84824 2579.6182 1168.9004 885.1102
63.748943 380.61356 6132.0024 306.28558 388.3277 573.53656 9.348396 4192.0083
2073.6028 494.14618 1738.8563 261.7083 2771.5144 2082.3323 1393.692 3.3596017
635.27344 1476.9812 3222.2876 1394.2529 7.253057 628.2168 1079.4917 2792.8645
432.5961 354.7517 1356.659 1508.452 2.8490498 2831.8613 1320.3583 1203.2722
1036.9109 1372.9854 2845.798 6029.4736 14.029747 2461.4377 402.9696 187.8971
113.85111 11.925878 1937.7794 1210.7854 352.6253 448.78156 2729.065 351.8319
779.8929 347.97336 135.65239 3889.9055 2742.3452 354.7695 1514.7267 1867.1262
3605.5376 1783.5382 247.02715 1717.3063 1902.3943 51.04974 799.21497 3669.2515
554.93677 222.13016 3450.6287 68.08323 41.544064 1464.2631 2.082603 511.9925
2207.629 399.14474 291.1844 659.1372 3403.337 787.2871 228.36539 1553.3424
00000000: c4fe 7141 0b2f 4c45 e8e1 8844 6403 4842
00000010: c4f9 bb42 9ba0 9d41 6c6f f343 dae3 bc44
00000020: c537 9b41 f4cb 0a44 7214 e643 8f47 de44
00000030: 99a4 9840 7e9a 3644 61b8 0040 d716 b142
00000040: 396d 5443 6024 9145 8e0a 9045 d226 9f44
00000050: e87a 4544 1cfb e443 0a8f 2a44 2151 5843
00000060: 8608 2b43 8911 bc43 2588 b242 5013 3945
00000070: 4bfc 9e40 f619 b644 c1b1 d044 78d6 8a45
00000080: 0db3 f443 72c5 1c43 4f13 b743 ffdc c644
00000090: d17b 7f44 69fc 2340 271f 0e43 7b57 8e45
000000a0: b709 4944 b52e 9843 080b 2244 1ad8 e743
000000b0: 26d9 3643 e439 2145 d01c 9244 0e47 5d44
000000c0: ebfe 7e42 894e be43 05a0 bf45 8e24 9943
000000d0: f229 c243 5762 0f44 0893 1541 1100 8345
000000e0: a599 0145 b612 f743 675b d944 aada 8243
000000f0: 3b38 2d45 5125 0245 2536 ae44 b703 5740
00000100: 80d1 1e44 669f b844 9a64 4945 1848 ae44
00000110: 0b19 e840 e00d 1d44 bcef 8644 d58d 2e45
00000120: 4d4c d843 3860 b143 1795 a944 778e bc44
00000130: d556 3640 c8fd 3045 770b a544 b668 9644
00000140: 269d 8144 889f ab44 c5dc 3145 ca6b bc45
00000150: d879 6041 01d7 1945 1c7c c943 a8e5 3b43
00000160: c5b3 e342 65d0 3e41 f138 f244 2259 9744
00000170: 0a50 b043 0a64 e043 0a91 2a45 7cea af43
00000180: 25f9 4244 97fc ad43 03a7 0743 7d1e 7345
00000190: 8665 2b45 7f62 b143 4157 bd44 0a64 e944
000001a0: 9a58 6145 39f1 de44 f306 7743 cda9 d644
000001b0: 9ecc ed44 ef32 4c42 c2cd 4744 0654 6545
000001c0: f4bb 0a44 5221 5e43 0faa 5745 9d2a 8842
000001d0: 1f2d 2642 6b08 b744 5e49 0540 0aff ff43
000001e0: 10fa 0945 8792 c743 9a97 9143 c8c8 2444
000001f0: 64b5 5445 60d2 4444 8a5d 6443 f52a c244

dnn.4.weight f4 [64, 128]
0.056547135 0.117762536 0.015280441 0.06394233 -0.097273886 -0.020919388 0.1358075 0.04036455
-0.020106869 0.003932594 0.0010803788 0.019776855 -0.0030091985 0.006168836 0.0013784525 0.17870408
0.0129386 0.057599477 -0.0019004992 -0.05752119 0.042091597 -0.03785349 -0.051983353 0.08167699
-0.01635841 -0.0026673456 -0.04896746 0.12048412 -0.093183614 -0.014734986 0.027067864 -0.02815215
-0.11770008 -0.006173663 0.032493044 0.001745913 -0.053492982 -0.029053539 0.100695066 -0.027293982
0.08227931 -0.026278067 0.058178276 -0.009493768 -0.12889977 0.08445644 0.023874398 0.06437379
-0.0743472 -0.0011001173 0.00031157827 0.066372104 0.0795508 -0.007394927 -0.06663832 -0.0077805137
0.050761256 -0.03816273 0.0113636535 0.065467335 -0.021525264 0.0119230915 0.10786818 0.07579074
-0.07913574 -0.011862231 0.05873047 -0.051690865 -0.09558608 -0.043460876 -0.0071422276 0.03902732
0.10285155 0.024512233 -0.019827208 0.15740214 -0.050574336 0.08936613 0.051372953 -0.0011221541
0.02497619 -0.055185936 -0.010000828 0.011031155 0.025203966 0.028496193 -0.03384394 0.029505104
-0.12475524 0.054146416 0.016983055 0.083710976 -0.13722189 0.020444255 0.09923976 -0.029927932
0.061068565 -0.07290302 0.052957665 0.16504571 0.0015996746 -0.014843548 -0.0051728087 0.06498086
0.023158357 0.070757255 0.07662824 0.13384451 -0.039296657 0.090595804 -0.09678603 -0.10869832
-0.02461497 0.09500652 0.08618536 -0.066962704 0.010883619 0.02535297 -0.12209298 0.09318606
0.103514366 0.08147564 0.035080377 0.0059584836 -0.0059101465 -0.009505509 0.061340548 0.03243404
0.12513888 0.031663142 -0.013984384 0.07593518 0.15442331 0.0290481 0.04292065 -0.002810478
0.019329982 -0.03212212 0.096999295 -0.019384257 0.048100654 -0.045621768 -0.062200576 0.029109398
-0.018395856 0.048384156 0.0680088 0.023044283 0.031448692 0.032543827 0.11069989 0.1304116
0.0013843343 0.03322043 0.1216139 -0.027788635 0.10161711 0.040035386 0.05434206 0.037008855
0.048475668 0.010415228 0.011203058 0.01854603 0.11902533 -0.017162828 -0.015830178 0.046002675
0.043838635 -0.009705565 0.05710019 -0.087209836 0.22108276 -0.02386462 0.04037479 -0.007629638
0.032583874 -0.008667758 0.050611354 -0.1119591 0.13397962 0.063952036 0.05051878 -0.05263681
-0.08850281 0.06394176 0.10758098 -0.07251799 -0.08874979 0.11791372 0.0846996 0.029366203
0.033188924 -0.11075613 -0.041180737 0.119286664 -0.069577694 -0.029869923 0.008453903 -0.027369432
-0.062596716 0.13379778 -0.089081794 0.024712374 0.04934649 0.007922128 0.12636973 0.09284551
-0.07823657 -0.017614186 -0.06780089 -0.003938419 0.05257105 0.06800368 0.07808171 -0.043330602
0.1213856 -0.046785712 -0.06992112 0.05656657 -0.029080842 0.0805936 -0.047909215 0.00911909
0.036100246 -0.055772983 0.037627127 0.12411263 0.0016026897 0.029819619 -0.007193595 0.02936566
0.068826936 -0.004033259 0.016169582 0.10933418 0.053023674 0.060235318 0.0689362 -0.06727144
0.100799575 -0.12978044 -0.011484811 -0.037220765 0.15663904 0.13513549 0.010331355 -0.03213866
0.03694006 -0.029884152 0.08074163 -0.028970156 0.08136934 0.04889365 0.014296681 0.014930195
00000000: f89d 673d 7c2d f13d d15a 7a3c 32f4 823d
00000010: 8837 c7bd 235f abbc 1f11 0b3e 4c55 253d
00000020: 29b7 a4bc fddc 803b 7f9b 8d3a 1203 a23c
00000030: f935 45bb f223 ca3b 31ad b43a 34fe 363e
00000040: 6cfc 533c 6eed 6b3d 2c1a f9ba 579b 6bbd
00000050: 3d68 2c3d 430c 1bbd 7fec 54bd 4446 a73d
00000060: 1202 86bc a2ce 2ebb 1a92 48bd 61c0 f63d
00000070: 0dd7 bebd 036b 71bc 6dbd dd3c 569f e6bc
00000080: bd0c f1bd 704c cabb 6d17 053d 1ed7 e43a
00000090: 751b 5bbd b001 eebc 3739 ce3d a197 dfbc
000000a0: 0e82 a83d 1a45 d7bc 584c 6e3d c08b 1bbc
000000b0: 4dfe 03be 7ff7 ac3d 3e94 c33c 68d6 833d
000000c0: 5843 98bd d031 90ba 545b a339 19ee 873d
000000d0: 88eb a23d 2551 f2bb ac79 88bd aef3 febb
000000e0: 09eb 4f3d 8650 1cbd 9e2e 3a3c bd13 863d
000000f0: c055 b0bc 1259 433c fee9 dc3d 2d38 9b3d
00000100: eb11 a2bd ce59 42bc 5c8f 703d cdb9 53bd
00000110: a2c2 c3bd 0804 32bd 5909 eabb 1cdb 1f3d
00000120: d5a3 d23d e1cd c83c ab6c a2bc 072e 213e
00000130: 0927 4fbd 9705 b73d 726c 523d 3e15 93ba
00000140: de9a cc3c a60a 62bd 83da 23bc 04bc 343c
00000150: 8c78 ce3c d970 e93c f19f 0abd b0b4 f13c
00000160: ad7f ffbd a2c8 5d3d 0c20 8b3c a970 ab3d
00000170: e583 0cbe b67a a73c 373e cb3d 6c2b f5bc
00000180: 0823 7a3d 2e4e 95bd 23ea 583d be01 293e
00000190: 2cac d13a 5a32 73bc aa80 a9bb af14 853d
000001a0: 98b6 bd3c 2ee9 903d 44ef 9c3d 890e 093e
000001b0: 88f5 20bd 4b8a b93d c137 c6bd 3a9d debd
000001c0: 55a5 c9bc c792 c23d f381 b03d be23 89bd
000001d0: 3551 323c 08b1 cf3c e20b fabd 55d8 be3d
000001e0: 57ff d33d b3dc a63d 71b0 0f3d 623f c33b
000001f0: e7a9 c1bb ffbc 1bbc 3a40 7b3d 8ed9 043d
00000200: 6824 003e 36b1 013d c21e 65bc e783 9b3d
00000210: 2521 1e3e 48f6 ed3c 90cd 2f3d ff2f 38bb
00000220: e959 9e3c 7c92 03bd 91a7 c63d bccb 9ebc
00000230: 3105 453d e4dd 3abd 08c6 7ebd d576 ee3c
00000240: e8b2 96bc 772e 463d 3348 8b3d 5dc7 bc3c
00000250: 58d0 003d ad4c 053d a0b6 e23d 9e8a 053e
00000260: 8d72 b53a 2512 083d b510 f93d fea4 e3bc
00000270: a21c d03d 25fc 233d c895 5e3d 9996 173d
00000280: 6c8e 463d a2a4 2a3c 088d 373c d8ed 973c
00000290: 8dc3 f33d 0f99 8cbc 4aae 81bc 4d6d 3c3d
000002a0: 2490 333d 1704 1fbc e4e1 693d 129b b2bd
000002b0: 8563 623e bc7f c3bc 0960 253d 0b02 fabb
000002c0: ab76 053d 3603 0ebc da4d 4f3d d04a e5bd
000002d0: f431 093e 49f9 823d c8ec 4e3d b299 57bd
000002e0: f640 b5bd e6f3 823d 6b53 dc3d 5084 94bd
000002f0: 73c2 b5bd c07c f13d fc76 ad3d 6491 f03c
00000300: 1cf1 073d 1cd4 e2bd 22ad 28bd 914c f43d
00000310: c07e 8ebd c5b1 f4bc 3d82 0a3c dc35 e0bc
00000320: b532 80bd 4902 093e 8470 b6bd 9b71 ca3c
00000330: 8c1f 4a3d d0cb 013c 1167 013e c925 be3d
00000340: 7f3a a0bd a04b 90bc 31db 8abd da0d 81bb
00000350: be54 573d 8345 8b3d 4ee9 9f3d 6e7b 31bd
00000360: 0399 f83d 60a2 3fbd ce32 8fbd 59b2 673d
00000370: f23a eebc 420e a53d 743c 44bd 3c68 153c
00000380: dadd 133d 3672 64bd e71e 1a3d c32e fe3d
00000390: 5811 d23a 4648 f43c 40b8 ebbb 4190 f03c
000003a0: 23f5 8c3d 6e29 84bb 1276 843c 99ea df3d
000003b0: 5a2f 593d 4fb9 763d 6c2e 8d3d 9cc5 89bd
000003c0: 0270 ce3d 2ae5 04be ca2a 3cbc cd74 18bd
000003d0: fc65 203e f560 0a3e d844 293c d4a3 03bd
000003e0: 764e 173d 9ccf f4bc de5b a53d d252 edbc
000003f0: f8a4 a63d b544 483d a03c 6a3c c79d 743c

dnn.4.bias f4 [64]
-0.15388437 -0.0727326 0.02816242 -0.10039486 0.048885982 -0.03276002 -0.08610064 -0.060306564
-0.08760883 0.061582122 -0.05000809 0.03593216 -0.12797707 0.012703376 0.0050203055 -0.08353885
0.06081005 -0.18191364 0.14588533 -0.029563233 0.018146794 -0.009422148 -0.02011412 -0.07287294
-0.037667442 0.04377661 -0.19862843 -0.10946022 -0.12880656 -0.04438421 -0.07221406 -0.030761966
-0.15766524 0.016907744 -0.06899719 -0.039294623 -0.019784883 0.006729255 -0.048474383 -0.120609455
-0.0137268 -0.076376684 -0.15784872 -0.049546022 -0.0069525666 -0.022284644 -0.013040899 0.031117171
-0.010022188 0.08810651 0.08868534 0.09089883 0.07722517 0.008419359 0.08155092 -0.19308887
0.033532217 -0.079399034 -0.119378746 0.14947034 0.016376162 0.077145234 -0.020344986 -0.029348424
00000000: dd93 1dbe d4f4 94bd e0b4 e63c d29b cdbd
00000010: ab3c 483d 5f2f 06bd 8855 b0bd 0404 77bd
00000020: 426c b3bd 893d 7c3d 48d5 4cbd 9a2d 133d
00000030: 6c0c 03be d221 503c 6081 a43b 6b16 abbd
00000040: f613 793d 9247 3abe f762 153e 982e f2bc
00000050: 96a8 943c 5a5f 1abc 5ec6 a4bc 683e 95bd
00000060: 2d49 1abd 1a4f 333d 4065 4bbe ae2c e0bd
00000070: dee5 03be 38cc 35bd f7e4 93bd 8500 fcbc
00000080: ff72 21be 1c82 8a3c 664e 8dbd 66f3 20bd
00000090: e813 a2bc 1581 dc3b 138d 46bd 1702 f7bd
000000a0: 5fe6 60bc 616b 9cbd 18a3 21be c5f0 4abd
000000b0: 5bd2 e3bb 498e b6bc 7fa9 55bc 70e9 fe3c
000000c0: 1a34 24bc 3071 b43d a9a0 b53d 2a29 ba3d
000000d0: 3b28 9e3d 5af1 093c 2b04 a73d 17b9 45be
000000e0: 1459 093d f69b a2bd d87c f4bd c10e 193e
000000f0: 4d27 863c 52fe 9d3d 87aa a6bc 1b6c f0bc

dnn.6.weight f4 [64]
1.0123467 0.9200641 0.8962754 1.0176624 1.0766695 0.9185735 0.9939303 0.8615367
0.998985 1.000325 0.915579 1.0476878 0.88993466 0.9995008 0.93897593 0.93818027
0.88768095 0.98315394 1.0664825 0.930096 1.0310168 0.9194179 1.0620316 0.87293947
0.934348 0.94772714 0.9414416 1.0605092 0.93982774 0.9840148 0.93353325 0.9318276
0.90266675 0.955995 0.89135426 0.90315104 0.90912974 0.99972284 0.9522103 0.9378779
1.0140976 0.9205451 0.9870272 1.0367283 0.9930806 0.9284422 0.9647336 0.9627487
0.9043117 1.0018572 0.9597039 0.9755966 0.93695843 0.8928746 0.99661845 1.0196497
1.01242 0.93926054 0.94124246 1.0141476 0.90849525 0.9170757 0.95478535 0.9647424
00000000: 9494 813f 5289 6b3f 4e72 653f c342 823f
00000010: 4ed0 893f a227 6b3f 3772 7e3f ab8d 5c3f
00000020: 7bbd 7f3f a60a 803f 6363 6a3f a21a 863f
00000030: c2d2 633f 49df 7f3f ba60 703f 952c 703f
00000040: 0f3f 633f faaf 7b3f 8082 883f c51a 6e3f
00000050: 5cf8 833f f95e 6b3f a7f0 873f f678 5f3f
00000060: 6e31 6f3f 3f9e 723f 5102 713f c4be 873f
00000070: 8d98 703f 65e8 7b3f 09fc 6e3f 418c 6e3f
00000080: 2b15 673f 17bc 743f cb2f 643f e834 673f
00000090: babc 683f d6ed 7f3f 0ec4 733f c418 703f
000000a0: f3cd 813f d8a8 6b3f d1ad 7c3f 83b3 843f
000000b0: 883a 7e3f 63ae 6d3f c8f8 763f b376 763f
000000c0: f980 673f db3c 803f 28af 753f b3c0 793f
000000d0: 82dc 6f3f 6e93 643f 6322 7f3f e283 823f
000000e0: fb96 813f 6173 703f 44f5 703f 97cf 813f
000000f0: 2593 683f 79c5 6a3f d06c 743f 5cf9 763f

dnn.6.bias f4 [64]
-0.03157413 0.06000642 0.042126697 -0.054177117 -0.012216584 0.08075063 -0.017384477 -0.006936786
0.03759686 -0.009876301 -0.00056852284 -0.0029861091 0.0885292 0.047153823 0.06308081 -0.013126185
0.012769305 -0.054800887 0.035933305 -0.0007214735 -0.057311907 0.02128181 0.011574751 0.04766255
-0.0039263824 -0.038911585 0.018747201 -0.048230384 0.0016661347 -0.026550643 -0.042069692 0.02064677
-0.046214778 0.027979156 0.020944443 -0.12535265 0.0028485577 0.04435285 0.010433331 -0.052839085
0.032601755 0.096115395 -0.029570004 -0.048104748 -0.07035363 -0.022684546 -0.05196179 0.04080625
-0.04113567 0.0141914515 -0.014545354 -0.089213476 0.054581773 -0.04344423 0.010579892 -0.10126211
-0.007307597 -0.014650785 -0.0023689317 -0.0577225 0.028501417 0.0074011288 0.00082635495 0.07325699
00000000: e053 01bd 4bc9 753d 0b8d 2c3d d3e8 5dbd
00000010: 1128 48bc 9660 a53d e469 8ebc fb4d e3bb
00000020: 2aff 193d 35d0 21bc ec08 15ba 99b2 43bb
00000030: cc4e b53d 5e24 413d 8330 813d 360f 57bc
00000040: 5936 513c e576 60bd cd2e 133d 4421 3dba
00000050: e4bf 6abd 3157 ae3c 06a4 3d3c ce39 433d
00000060: e2a8 80bb c161 1fbd bb93 993c 398d 45bd
00000070: 3462 da3a bc80 d9bc 4551 2cbd 6a23 a93c
00000080: b54b 3dbd 8b34 e53c ae93 ab3c 725c 00be
00000090: deae 3a3b 56ab 353d 90f0 2a3c cc6d 58bd
000000a0: 6b89 053d 26d8 c43d cb3c f2bc 7c09 45bd
000000b0: 9015 90bd f1d4 b9bc e3d5 54bd 7424 273d
000000c0: e07d 28bd 4383 683c a34f 6ebc 8eb5 b6bd
000000d0: 2391 5f3d 94f2 31bd 4957 2d3c 8262 cfbd
000000e0: 9174 efbb d909 70bc 1440 1bbb 6e6e 6cbd
000000f0: ce7b e93c 2b85 f23b be9f 583a c307 963d

dnn.6.running_mean f4 [64]
0.45431527 0.5263179 0.46568584 0.5722227 0.62789345 0.53430986 0.55402184 0.42089856
0.59744924 0.80691755 0.57987756 0.7223931 0.33394507 0.57853806 0.5624245 0.47285002
0.5314238 0.35782102 0.74434537 0.45779786 0.60456395 0.59891695 0.5437839 0.43883404
0.438831 0.612765 0.44817248 0.5290464 0.46293512 0.42747244 0.43397033 0.61504245
0.4214303 0.55103266 0.5281062 0.49697906 0.3737357 0.5384637 0.4249899 0.50481784
0.55817384 0.4232502 0.52981883 0.6282928 0.5460099 0.41294563 0.6926734 0.6307322
0.42284173 0.62003577 0.59263366 0.7531826 0.6779775 0.52444845 0.70038027 0.5238504
0.60569906 0.46332842 0.59399086 0.644453 0.51417863 0.51346624 0.5556884 0.5397916
00000000: 039c e83e c5bc 063f 606e ee3e 307d 123f
00000010: a0bd 203f 88c8 083f 60d4 0d3f 0480 d73e
00000020: 6ff2 183f 2692 4e3f db72 143f c1ee 383f
00000030: d9fa aa3e 121b 143f 0dfb 0f3f 6619 f23e
00000040: 640b 083f 5134 b73e 6b8d 3e3f 7b64 ea3e
00000050: b4c4 1a3f 9f52 193f 6c35 0b3f dbae e03e
00000060: 75ae e03e 2bde 1c3f dd76 e53e 966f 073f
00000070: d505 ed3e abdd da3e 5c31 de3e 6c73 1d3f
00000080: b6c5 d73e 7a10 0d3f f831 073f 0a74 fe3e
00000090: 495a bf3e c2d8 093f 4798 d93e be3b 013f
000000a0: 7be4 0e3f 40b4 d83e 35a2 073f ccd7 203f
000000b0: 4ec7 0b3f 9c6d d33e 0b53 313f aa77 213f
000000c0: b67e d83e aaba 1e3f d7b6 173f 93d0 403f
000000d0: ef8f 2d3f 4142 063f 1f4c 333f 0f1b 063f
000000e0: 180f 1b3f 6239 ed3e c90f 183f dffa 243f
000000f0: 36a1 033f 8672 033f 9841 0e3f c82f 0a3f

dnn.6.running_var f4 [64]
0.8471053 0.92430544 0.6327829 1.119331 0.62053245 0.86025065 0.5250887 0.67132944
0.6668282 0.7986454 0.58647525 0.713396 0.54407865 0.88475907 0.5282191 0.8487766
0.7122297 0.6035537 1.3100774 0.6489084 0.5008457 1.0657763 0.57164085 0.732609
0.3420235 1.268392 0.68537325 0.8214543 0.8170905 0.75205255 0.6683324 1.1170717
0.5523655 0.87054855 0.9603477 0.71367085 0.25355408 0.85216624 0.40423918 0.926522
0.87189627 0.5540852 0.88962585 1.325656 0.559107 0.58673173 1.512422 0.9258433
0.5739984 0.59096545 0.9163726 0.69161147 1.2687889 1.3219883 0.67436343 1.1150346
0.8905541 0.9725914 1.2886298 1.1382602 0.5879645 0.91162056 1.1400899 0.7488664
00000000: e5db 583f 489f 6c3f 0ffe 213f 3d46 8f3f
00000010: 37db 1e3f 6339 5c3f 376c 063f 3fdc 2b3f
00000020: 41b5 2a3f 0674 4c3f 3e23 163f 1fa1 363f
00000030: bd48 0b3f 927f 623f 5e39 073f 6c49 593f
00000040: b054 363f 7f82 1a3f 9eb0 a73f dc1e 263f
00000050: 6c37 003f 5c6b 883f 0e57 123f 438c 3b3f
00000060: b41d af3e ab5a a23f 9f74 2f3f d44a 523f
00000070: d82c 513f 8486 403f d517 2b3f 35fc 8e3f
00000080: d367 0d3f 45dc 5e3f 59d9 753f 22b3 363f
00000090: d7d1 813e 9127 5a3f 70f8 ce3e 8c30 6d3f
000000a0: 9834 5f3f 87d8 0d3f 85be 633f 19af a93f
000000b0: a321 0f3f 0d34 163f 0b97 c13f 1104 6d3f
000000c0: 8ff1 123f 8349 173f 6597 6a3f 730d 313f
000000d0: ad67 a23f ea36 a93f 15a3 2c3f 74b9 8e3f
000000e0: 5afb 633f c0fb 783f d2f1 a43f 83b2 913f
000000f0: d784 163f f75f 693f 77ee 913f b5b5 3f3f
