src/pytorch/ctr/202509v2/criteo_ctr_model.onnx (onnx, 19799 bytes, 5 tensors)

network.0.weight f4 [64, 39]
-0.14267083 -0.08617288 -0.041070893 -0.21332598 0.41205287 0.5973306 -0.3560729 0.06391119
-0.20074604 -0.15028735 -0.47164777 -0.0029055434 0.34729847 0.017150678 -0.087409526 -0.08641256
-0.10895738 0.23444071 -0.16291812 -0.03634186 0.16745968 -0.08847947 0.007890294 0.083569236
-0.078916796 -0.032820158 0.054246422 -0.0038357612 -0.13383117 0.014294891 -0.052137982 -0.1947707
-0.05328713 -0.18526152 -0.043915365 0.12631962 -0.13205831 0.07841992 0.16012199 -0.026649008
-0.040463265 0.55952275 0.069498524 0.50180197 0.62880075 -0.2630861 0.42537093 0.1393876
0.20019951 -0.7126915 -0.27617335 0.59136266 -0.0064531188 -0.00886182 0.06562535 -0.07048281
-0.16044171 -0.21878605 -0.0011342949 0.042678572 0.40323713 -0.0034329493 0.08558743 0.095759526
-0.09298546 0.07284555 0.009248002 0.0035642937 0.17630838 -0.0073754746 -0.029883113 0.19247921
-0.1451196 -0.060670845 0.16016635 0.009405538 -0.040684596 0.022151647 -0.21032622 -0.07138208
-0.17199308 -0.028977973 0.18300083 0.09846989 -0.17629656 -0.10615476 -0.020563066 -0.050010428
0.041797325 -0.20997979 0.35322958 -0.030709747 0.021001646 -0.15323842 -0.07468683 0.104638465
-0.07685495 0.049794223 -0.13168055 0.058600534 0.096008696 -0.14155975 -0.19374911 -0.07152995
0.15763794 -0.05319386 -0.15438823 0.09637131 0.0097461045 -0.08360009 -0.12673825 -0.048639033
0.015470236 -0.10214492 -0.0459871 -0.13017935 -0.040602878 0.04929248 0.09050349 0.2479384
0.030235842 0.068079524 0.35797548 -0.25942948 -0.062448267 -0.11488766 -0.017903429 -0.14486724
-0.12245534 0.20966053 -0.19920184 0.015605611 -0.081471175 0.10960214 -0.11149104 -0.09293852
0.048705146 -0.056443226 0.21845143 -0.17893302 0.08991402 0.15455177 -0.15113427 -0.1468572
-0.08038603 -0.08571957 0.020354418 -0.07481348 0.029532589 -0.08854466 0.02359765 -0.08890225
0.01074202 -0.026173638 -0.124078274 -0.05909033 -0.10165484 -0.07265241 0.23683457 0.0368851
0.27072033 0.2722222 -0.23498562 0.19347359 -0.060669433 -0.22400104 -0.38883117 -0.23459178
0.38887572 -0.024642453 0.0675579 0.13261203 -0.12903725 -0.043972492 -0.19499879 0.024453998
0.08676915 0.122905165 -0.0818923 -0.0033481126 -0.049135715 0.054741524 -0.09569977 0.010869209
0.104557924 0.091628596 -0.11623974 0.07491436 0.16735655 0.02915081 -0.050277576 0.021115808
-0.17853537 -0.099855416 0.118422724 -0.22793615 -0.04209953 0.04360156 -0.05704384 0.26604334
0.377662 -0.3898222 0.27064744 0.24568082 0.20912509 -0.32229894 -0.11161811 0.13252698
0.004359157 -0.022718988 -0.029347545 0.06003095 0.10241228 -0.10459365 -0.030733181 -0.089050576
0.06832792 -0.11074922 -0.02193374 0.022451077 -0.022230173 -0.08299375 -0.010757723 0.11276983
0.04666669 0.01620211 0.06597924 0.042686664 -0.07801644 0.0037481862 0.05119245 0.075202554
0.07773823 -0.15853645 0.06562662 -0.08535206 0.52933455 0.12723316 0.10205029 0.041519247
-0.33363134 0.34187466 0.07539545 0.13653521 -0.43801397 0.13550584 -0.15976438 0.14865564
0.050053604 -0.10395958 -0.08030859 0.03345108 -0.11422359 -0.04514037 0.04631766 0.30821624
00000000: 4d18 12be 687b b0bd f439 28bd 2072 5abe
00000010: 98f8 d23e a8ea 183f 304f b6be dfe3 823d
00000020: 5f90 4dbe ede4 19be d17b f1be ee6a 3ebb
00000030: 1bd1 b13e 947f 8c3c c403 b3bd 11f9 b0bd
00000040: 0c25 dfbd 3a11 703e 02d4 26be 34db 14bd
00000050: 8d7a 2b3e b934 b5bd 4b46 013c 5926 ab3d
00000060: 219f a1bd 6e6e 06bd 7f31 5e3d 6561 7bbb
00000070: 0a0b 09be 1e35 6a3c a38e 55bd f871 47be
00000080: 9b43 5abd 32b5 3dbe 99e0 33bd ee59 013e
00000090: 4b3a 07be 9f9a a03d 05f7 233e 054f dabc
000000a0: cfbc 25bd e23c 0f3f 3e55 8e3d 1876 003f
000000b0: 16f9 203f 39b3 86be 38ca d93e 9fbb 0e3e
000000c0: 1a01 4d3e f372 36bf 9866 8dbe 8b63 173f
000000d0: af74 d3bb 2b31 11bc 9566 863d 4b59 90bd
000000e0: d54a 24be 7309 60be 9fac 94ba bacf 2e3d
000000f0: 1975 ce3e 55fb 60bb 7648 af3d 921d c43d
00000100: 296f bebd 0c30 953d ef84 173c ed96 693b
00000110: 2f8a 343e f7ad f1bb 6ecd f4bc 4519 453e
00000120: 3c9a 14be fe81 78bd a602 243e b019 1a3c
00000130: e4a4 26bd 5f77 b53c c25f 57be c530 92bd
00000140: f41e 30be 3763 edbc 9264 3b3e 95aa c93d
00000150: 1687 34be ab67 d9bd e073 a8bc bcd7 4cbd
00000160: ac33 2b3d f104 57be 82da b43e 0293 fbbc
00000170: a50b ac3c 88ea 1cbe 69f5 98bd b14c d63d
00000180: 2166 9dbd 07f5 4b3d 44d7 06be 1d07 703d
00000190: 35a0 c43d 0af5 10be 2b66 46be 4b7e 92bd
000001a0: d76b 213e cee1 59bd f317 1ebe 525e c53d
000001b0: 20ae 1f3c 8636 abbd acc7 01be b939 47bd
000001c0: df76 7d3c 5b31 d1bd f85c 3cbd bc4d 05be
000001d0: 344f 26bd e9e6 493d e559 b93d 90e3 7d3e
000001e0: 28b1 f73c 476d 8b3d 9048 b73e f1d3 84be
000001f0: c1c9 7fbd 394a ebbd 36aa 92bc 1458 14be
00000200: dec9 fabd 40b1 563e 91fb 4bbe adae 7f3c
00000210: 5cda a6bd 1677 e03d 6a55 e4bd 8d56 bebd
00000220: 0c7f 473d 0331 67bd bbb1 5f3e 383a 37be
00000230: d724 b83d d242 1e3e f1c2 1abe bc61 16be
00000240: 6ea1 a4bd be8d afbd 4fbe a63c cf37 99bd
00000250: 54ee f13c e756 b5bd dc4f c13c 6212 b6bd
00000260: 4cff 2f3c 196a d6bc c01c febd b408 72bd
00000270: 6a30 d0bd c9ca 94bd c384 723e d514 173d
00000280: db9b 8a3e b560 8b3e 12a0 70be f11d 463e
00000290: 8380 78bd 8760 65be e114 c7be d438 70be
000002a0: b81a c73e f8de c9bc cc5b 8a3d 73cb 073e
000002b0: 5722 04be 801c 34bd c3ad 47be c053 c83c
000002c0: 06b4 b13d b4b5 fb3d 26b7 a7bd 026c 5bbb
000002d0: 8842 49bd a638 603d 3efe c3bd c414 323c
000002e0: 7722 d63d c6a7 bb3d 1a0f eebd b36c 993d
000002f0: 845f 2b3e aecd ee3c dcef 4dbd 0ffb ac3c
00000300: fad1 36be ff80 ccbd 9d87 f23d 1868 69be
00000310: 8f70 2cbd 8d97 323d cda6 69bd d536 883e
00000320: ea5c c13e c796 c7be 4d92 8a3e c193 7b3e
00000330: e324 563e 5e04 a5be 0998 e4bd 27b5 073e
00000340: 42d7 8e3b 2c1d babc 436a f0bc 03e3 753d
00000350: 88bd d13d 3235 d6bd 27c4 fbbc 2660 b6bd
00000360: 82ef 8b3d 7dd0 e2bd 63ae b3bc 52eb b73c
00000370: 0d1c b6bc a1f8 a9bd 2941 30bc def3 e63d
00000380: 9225 3f3d 4aba 843c 2020 873d 36d8 2e3d
00000390: 15c7 9fbd 21a4 753b 2daf 513d cc03 9a3d
000003a0: 3935 9f3d 6157 22be 4067 863d 10cd aebd
000003b0: 7882 073f 6949 023e beff d03d 1610 2a3d
000003c0: bad1 aabe 320a af3e ee68 9a3d e3cf 0b3e
000003d0: 5e43 e0be 0bc2 0a3e 4699 23be 2f39 183e
000003e0: 0205 4d3d c3e8 d4bd d478 a4bd 0004 093d
000003f0: 0fee e9bd 1ce5 38bd 96b7 3d3d 85ce 9d3e

network.0.bias f4 [64]
0.007418487 0.5704716 -0.040503606 -0.03564009 0.008758921 0.19538654 0.09402366 0.4111774
0.5570036 0.46045992 0.22786139 -0.068402745 -0.18087752 -0.072689466 -0.06269189 0.005878219
0.114330016 0.13654238 0.35520342 0.29023525 -0.5076535 -0.09344458 0.101011924 0.18664692
-0.13957754 -0.26977968 -0.33152297 0.17733395 0.47739592 -0.27269027 0.38149217 -0.19366886
-0.23617555 0.5552314 -0.2778257 -0.23558442 -0.6287145 0.3029011 -0.19978829 0.079021074
-0.3783194 -0.2796207 -0.33020434 0.19126588 0.4548792 0.470689 0.024729574 -0.4014892
0.7566964 -0.2658258 0.20597765 -0.13334493 -0.037777692 0.33583397 -0.0060450826 0.030371472
-0.19008021 -0.39833605 0.0043828017 -0.1371692 0.25008303 -0.20222409 0.3094866 0.05607438
00000000: c816 f33b 6d0a 123f 1ce7 25bd 58fb 11bd
00000010: 9481 0f3c 6913 483e 7a8f c03d d885 d23e
00000020: ca97 0e3f 67c1 eb3e 7f54 693e bd16 8cbd
00000030: f537 39be 37de 94bd 9b64 80bd 139e c03b
00000040: db25 ea3d c4d1 0b3e 39dd b53e b799 943e
00000050: 94f5 01bf df5f bfbd 57df ce3d 5f20 3f3e
00000060: 6aed 0ebe 9020 8abe 61bd a9be 0897 353e
00000070: 3d6d f43e 0f9e 8bbe f152 c33e 2151 46be
00000080: 01d8 71be a523 0e3f 2c3f 8ebe 0b3d 71be
00000090: 6ff3 20bf da15 9b3e 4d95 4cbe cdd5 a13d
000000a0: 15b3 c1be 722a 8fbe 8b10 a9be 34db 433e
000000b0: ede5 e83e 26fe f03e ad95 ca3c fe8f cdbe
000000c0: dbb6 413f 521a 88be ceeb 523e 938b 08be
000000d0: c8bc 1abd 6ef2 ab3e d415 c6bb 98cd f83c
000000e0: 63a4 42be b4f2 cbbe 9b9d 8f3b 1576 0cbe
000000f0: e20a 803e d513 4fbe 0775 9e3e 40ae 653d

network.3.weight f4 [32, 64]
0.001461058 0.11766651 -0.15658437 -0.07973755 0.016873823 0.03794774 -0.10434044 0.07746173
0.11175931 0.12531881 0.05268331 -0.0065954607 0.0586799 -0.011755152 0.066744335 0.0313839
0.06080517 -0.017603049 0.14273567 0.048607685 0.006296865 -0.025438989 -0.007893471 0.046000686
-0.010198082 -0.039745722 -0.022925097 -0.039160937 0.28213 -0.06389825 0.11345823 0.08295942
-0.0062467908 0.032220315 -0.06340999 -0.23191762 -0.13826427 0.07525355 -0.12060926 -0.07999818
-0.08078414 -0.010885801 -0.022303218 -0.034128603 0.12635215 0.1943805 -0.06577852 -0.13562822
0.10687455 -0.014046165 -0.0021054693 -0.051254574 -0.027573355 0.051225726 -0.10335904 -0.05251219
-0.12875414 0.05427299 0.0073970254 -0.08423183 0.09167967 -0.08401562 0.047313776 0.028648458
-0.10686457 -0.0133497305 -9.740896e-05 0.027067337 -0.090199344 -0.00840127 -0.14884219 -0.16839157
0.17154725 -0.0802797 -0.16869345 -0.06387525 -0.01780842 0.014521812 0.040495045 -0.094892696
0.14441809 0.042197436 0.035302244 -0.071217395 -0.21662892 0.009335214 0.011209096 -0.108770385
-0.16454579 0.00037742552 0.12549415 -0.04579619 0.20639108 0.012318288 0.091787525 -0.12940794
0.07664297 0.038566627 -0.15197639 -0.053341694 -0.071753316 -0.031187557 0.056933634 0.011945797
-0.05290376 -0.088718235 -0.0942147 0.0044142716 -0.0692816 0.00076699816 0.07125781 -0.05896036
0.044204447 -0.016132027 -0.13408858 -0.08803308 -0.06813699 0.10421942 -0.0024244874 0.0042228955
-0.03981146 -0.030074028 -0.0068311887 0.034302384 -0.008024302 -0.16754054 -0.039658703 0.06608095
-0.115330234 -0.031218013 -0.10206078 -0.019193122 -0.09497002 0.059811004 0.042953264 -0.021286039
-0.037582524 -0.12184289 -0.02712604 -0.03888204 -0.15062457 -0.082062036 -0.038376104 -0.0501656
-0.1618277 -0.040647488 -0.0685263 -0.05883604 0.114300266 -0.052340426 -0.11343104 0.0022044054
0.016269362 0.037099816 0.10810961 -0.052860443 -0.089036606 -0.1129674 0.015945114 0.076890156
-0.06580074 -0.104587615 -0.11537422 0.0741422 -0.011745547 0.03862611 -0.11837493 -0.122307576
-0.012060591 -0.09397532 0.09073233 -0.116555065 -0.14522392 0.018799543 -0.0540163 0.008080173
-0.0461067 0.04099809 -0.115083665 -0.051039502 -0.085491404 -0.03298494 0.11466146 -0.11883003
0.028403329 -0.039631005 -0.017886536 -0.09417859 -0.11257652 -0.07665223 -0.014879255 0.0052724443
-0.034464657 -0.08500827 -0.0773406 0.10635845 -0.073731124 0.09485345 -0.03067469 -0.15547319
0.022474008 -0.102399595 -0.11076212 -0.073215164 -0.032159314 0.028097643 -0.10747853 -0.092784286
0.06152531 0.08906728 0.02807369 0.057579283 0.024801299 -0.13603994 0.064836144 -0.043960497
-0.08373925 0.072657906 -0.019420112 -0.13850553 -0.06290634 0.062264245 0.009769089 -0.12607127
-0.015248247 -0.13489503 0.12169153 0.100413255 -0.0038353032 0.089841485 0.04710521 0.05873227
0.077910535 0.10468389 0.06486093 -0.044683833 -0.18187355 -0.13728501 -0.018281294 0.12434483
-0.13800997 0.16305903 -0.10740674 -0.0037815468 -0.080592 -0.12472027 -0.051237565 -0.13099155
-0.014949604 0.07755046 -0.0828516 2.0053005e-05 0.029233633 0.080767825 0.03289158 -0.04553409
00000000: f980 bf3a 24fb f03d a757 20be 714d a3bd
00000010: f93a 8a3c 176f 1b3d 71b0 d5bd 41a4 9e3d
00000020: 11e2 e43d 9353 003e 74ca 573d bc1e d8bb
00000030: 565a 703d ae98 40bc 41b1 883d 688c 003d
00000040: d80e 793d 4534 90bc 4d29 123e da18 473d
00000050: ef55 ce3b 6d65 d0bc 9e53 01bc 376b 3c3d
00000060: db15 27bc 69cc 22bd 6acd bbbc 3867 20bd
00000070: 5873 903e 16dd 82bd ca5c e83d a1e6 a93d
00000080: e1b1 ccbb 73f9 033d 19dd 81bd d07b 6dbe
00000090: 2695 0dbe 891e 9a3d fd01 f7bd 16d6 a3bd
000000a0: 2872 a5bd 5c5a 32bc 3db5 b6bc 6fca 0bbd
000000b0: 7562 013e af0b 473e e4b6 86bd 20e2 0abe
000000c0: 0be1 da3d e321 66bc eafb 09bb 51f0 51bd
000000d0: 84e1 e1bc 11d2 513d e8ad d3bd 0617 57bd
000000e0: 20d8 03be 5b4d 5e3d bf62 f23b bd81 acbd
000000f0: 8dc2 bb3d 6210 acbd 17cc 413d 2cb0 ea3c
00000100: d0db dabd d4b8 5abc 0a48 ccb8 52bc dd3c
00000110: 6fba b8bd 7ba5 09bc 166a 18be d76e 2cbe
00000120: 15aa 2f3e af69 a4bd fabd 2cbe 07d1 82bd
00000130: f7e2 91bc e5ec 6d3c 22de 253d 1a57 c2bd
00000140: 56e2 133e 38d7 2c3d 1699 103d 6dda 91bd
00000150: f9d3 5dbe baf2 183c 5ba6 373c 02c3 debd
00000160: b17e 28be 32e1 c539 8a81 003e c994 3bbd
00000170: 2f58 533e a5d2 493c 19fb bb3d 8483 04be
00000180: fdf6 9c3d 0af8 1d3d b39f 1bbe d27c 5abd
00000190: 67f3 92bd 0c7d ffbc 3e33 693d 4eb8 433c
000001a0: 9db1 58bd e8b1 b5bd a3f3 c0bd 98a5 903b
000001b0: 83e3 8dbd 6010 493a 9def 913d 6b80 71bd
000001c0: b90f 353d 5027 84bc 844e 09be b04a b4bd
000001d0: 688b 8bbd fe70 d53d 26e4 1ebb 3760 8a3b
000001e0: 5711 23bd cf5d f6bc 2ad8 dfbb a880 0c3d
000001f0: 5d78 03bc bf8f 2bbe 2a71 22bd 7355 873d
00000200: 4232 ecbd ebbc ffbc 3e05 d1bd e53a 9dbc
00000210: a47f c2bd 62fc 743d c3ef 2f3d 0f60 aebc
00000220: 22f0 19bd c488 f9bd 6e37 debc c642 1fbd
00000230: 543d 1abe 2410 a8bd 4330 1dbd 727a 4dbd
00000240: 29b6 25be fb7d 26bd 8457 8cbd 0ffe 70bd
00000250: 4216 ea3d ea62 56bd 884e e8bd c977 103b
00000260: 5347 853c faf5 173d 9268 dd3d 3184 58bd
00000270: d358 b6bd 745b e7bd 549f 823c 9678 9d3d
00000280: 8ac2 86bd 0832 d6bd 5249 ecbd ded7 973d
00000290: 6570 40bc 6936 1e3d 8e6e f2bd 657c fabd
000002a0: c999 45bc 2276 c0bd dfd1 b93d 6cb4 eebd
000002b0: 94b5 14be 8001 9a3c 3240 5dbd b462 043c
000002c0: 61da 3cbd 9ded 273d fcb0 ebbd cc0e 51bd
000002d0: 1e16 afbd 371b 07bd a1d3 ea3d 295d f3bd
000002e0: 19ae e83c 1f54 22bd c986 92bc b4e0 c0bd
000002f0: 858e e6bd d8fb 9cbd 1ec8 73bc 78c4 ac3b
00000300: d02a 0dbd d118 aebd c064 9ebd 76d2 d93d
00000310: 5800 97bd 8742 c23d 7d49 fbbc 5d34 1fbe
00000320: 691b b83c e1b6 d1bd 40d7 e2bd d5f1 95bd
00000330: 7cb9 03bd 072d e63c b41d dcbd b005 bebd
00000340: f701 7c3d e868 b63d ccfa e53c 41d8 6b3d
00000350: 182c cb3c 0e4e 0bbe d0c8 843d ec0f 34bd
00000360: 7c7f abbd abcd 943d ed16 9fbc 65d4 0dbe
00000370: 0ad5 80bd cb08 7f3d 870e 203c d418 01be
00000380: c9d3 79bc ec21 0abe 6939 f93d 77a5 cd3d
00000390: b659 7bbb d0fe b73d 65f1 403d 4091 703d
000003a0: 8f8f 9f3d 8264 d63d cfd5 843d 6506 37bd
000003b0: 0f3d 3abe 7194 0cbe a7c2 95bc 81a8 fe3d
000003c0: 7c52 0dbe f2f8 263e 11f8 dbbd d4d3 77bb
000003d0: 6b0d a5bd 576d ffbd 7bde 51bd a622 06be
000003e0: 2fef 74bc c7d2 9e3d 1aae a9bd 8037 a837
000003f0: 5f7b ef3c 9a69 a53d 52b9 063d f481 3abd

network.3.bias f4 [32]
0.69761866 0.26985592 -0.031297024 0.074209005 -0.06609826 -0.064806886 0.40530497 0.36350062
-0.028711168 0.40727386 0.043125045 -0.08239496 0.2690508 -0.121052496 -0.061060965 0.28828084
0.6452364 -0.05124494 -0.037456356 0.54431677 0.12875201 0.5327495 -0.1577195 0.5058103
-0.11743596 0.47471946 -0.07175886 0.050922006 -0.10721661 -0.03487033 0.48160344 0.41057923
00000000: 2397 323f 8e2a 8a3e 4f31 00bd e4fa 973d
00000010: 865e 87bd 79b9 84bd 2284 cf3e c11c ba3e
00000020: af33 ebbc 3386 d03e e3a3 303d b0be a8bd
00000030: 07c1 893e 5fea f7bd 101b 7abd 8c99 933e
00000040: 362e 253f 37e6 51bd d66b 19bd 5858 0b3f
00000050: 91d7 033e 4562 083f 3881 21be c97c 013f
00000060: 4482 f0bd 6e0e f33e 4ff6 92bd 9893 503d
00000070: 6294 dbbd 31d4 0ebd ba94 f63e 7137 d23e

network.6.weight f4 [1, 32]
-0.03063359 -0.095651 0.121193975 0.049105205 0.041439902 0.061108176 -0.06320421 -0.019908419
0.058278076 -0.02690956 0.09250835 0.1370251 -0.06532982 0.12900184 0.05880077 -0.04909531
-0.021044241 0.12752101 0.021515913 -0.031448107 0.12561859 -0.03524723 0.114658654 -0.03631564
0.04667762 -0.04007891 0.14250122 0.12210166 0.10608519 0.0542008 -0.10337676 -0.0260386
00000000: 4bf3 fabc ace4 c3bd 8c34 f83d 8a22 493d
00000010: e3bc 293d 914c 7a3d 3571 81bd fb16 a3bc
00000020: feb4 6e3d 7071 dcbc 0575 bd3d 4f50 0c3e
00000030: a4cb 85bd 0f19 043e 14d9 703d 2a18 49bd
00000040: f964 acbc de94 023e 2442 b03c bbcf 00bd
00000050: 29a2 003e 665f 10bd 28d2 ea3d b5bf 14bd
00000060: 0831 3f3d c829 24bd d7eb 113e 6f10 fa3d
00000070: 3143 d93d a801 5e3d 32b7 d3bd e74e d5bc
