src/pytorch/ctr/202509v2/criteo_ctr_model.onnx (onnx, 19799 bytes, 5 tensors)

network.0.weight f4 [64, 39]
000000 86 5c 50 3e 0e 7b c3 bd cd 55 b2 3d 93 40 9c be
       0.20347795 -0.09544955 0.087077715 -0.30518016
000010 a2 41 1e 3e 16 7b 94 3e bd be 20 be 81 fc 14 be
       0.15454724 0.29000157 -0.15697761 -0.14549448
000020 be b4 6a be 1a 03 66 3e 92 c9 18 bf 0c e3 1e be
       -0.2292051 0.2246212 -0.5968257 -0.15516299
000030 67 a9 0a 3e ff a3 b5 bc b1 30 c9 bd 63 28 e7 3c
       0.13541184 -0.022172926 -0.0982374 0.0282175
000040 c7 b0 fa 3d 4c d4 41 3d 8e 12 07 bd 8f f1 93 bc
       0.12240749 0.047321603 -0.03297668 -0.01805952
000050 cb 32 35 3d a4 c8 8b 3e fc a5 1b bd aa 3c 3d bd
       0.044237893 0.27301514 -0.038000092 -0.046200432
000060 4d 2c 2f bd 94 15 a1 3d 1d d6 15 be 97 69 85 3c
       -0.042766858 0.07865444 -0.14632459 0.0162857
000070 15 72 f8 bc 27 8f 53 3e 1f eb c1 bd ca a6 25 3d
       -0.030327836 0.20660077 -0.09468674 0.040442266
000080 38 11 b5 3d fb c6 75 3c b8 db 83 be 5f 76 31 3e
       0.08841175 0.015001054 -0.2575357 0.17330311
000090 3d ba 42 3d 6a ca db 3d 28 b2 75 3d ca 34 f9 bb
       0.047540892 0.10731967 0.059984356 -0.00760517
0000a0 3e dd 19 be fe 8f 86 be 91 53 67 3e c2 0a f1 be
       -0.15025803 -0.26281732 0.22590472 -0.4707852
0000b0 23 fd 17 bf 37 7f b1 3d 55 b7 3b be 87 26 e7 ba
       -0.5937063 0.086668424 -0.18331654 -0.0017635383
0000c0 ca 1b 45 be fb 72 96 3e a0 bb d6 bd 9e f4 eb be
       -0.19248882 0.29384598 -0.104850054 -0.46085066
0000d0 24 83 8b bc 30 98 fa 3c 1c 14 48 be 85 e3 11 3e
       -0.017030306 0.030590147 -0.19538921 0.14246948
0000e0 77 2a e3 3c 6c 15 2a 3c 44 71 ff bd 7c 6c 84 bc
       0.02773021 0.010381084 -0.124727756 -0.01616501
0000f0 88 59 e1 bd a7 5e 57 bd a0 86 d9 bb 41 59 d3 bd
       -0.11003405 -0.052580502 -0.006638363 -0.10319758
000100 ee 77 07 bc 99 21 26 3e ad e1 c0 3c 12 87 c9 bd
       -0.00826834 0.16223754 0.02354511 -0.09840216
000110 d4 a1 ac be 21 a4 97 38 59 11 75 bd 97 c2 f3 bd
       -0.33717215 7.2308125e-05 -0.059830997 -0.119023494
000120 d2 b5 6d bd 89 82 52 3e ab 23 d4 bd 4d 1d e5 3d
       -0.058034725 0.20557608 -0.103583656 0.11187229
000130 98 d0 61 3a 7a 6f ea 3b 9f 7a 9b be a1 3c 9e 3d
       0.0008614152 0.0071544023 -0.3036699 0.07726408
000140 36 36 9f 3e e3 42 90 bd 5d e0 d6 3e 12 a3 f7 3e
       0.31096047 -0.07044008 0.4196805 0.483666
000150 89 e1 d7 be 22 2d b4 3e 35 12 86 3d ea 56 07 be
       -0.42164257 0.35190684 0.065464415 -0.13216749
000160 18 a2 15 bf f7 c6 ce be 77 1f a7 3e af 63 06 3c
       -0.5845046 -0.40386173 0.32641193 0.008202477
000170 4f b9 8e ba 6e 50 22 bc 7e 17 4d be be a4 c0 bd
       -0.0010888966 -0.009906871 -0.20028493 -0.09406422
000180 7f fa 1d be f4 ad 00 bc 43 f2 6d 3d c0 ad 05 3f
       -0.15427588 -0.007853974 0.058092367 0.52218246
000190 78 00 5b 3d ec 61 06 bc 42 43 7b bb aa 52 31 3d
       0.053467244 -0.008202057 -0.003833965 0.043291725
0001a0 0f 49 24 3e 9e ee 11 b9 2d 31 e8 3d 54 f9 34 3e
       0.16043495 -0.0001391717 0.113375045 0.17673236
0001b0 70 9a f2 3c e3 a9 d5 3d 4b 70 fe 3d 6f aa 1c 3d
       0.029614657 0.10432794 0.12423762 0.038248476
0001c0 e5 a7 5f bc 8e 50 11 3e 8e 4f f1 3c 08 40 c7 bc
       -0.013650869 0.14190885 0.02945688 -0.024322525
0001d0 19 8f 50 3d 33 f4 a5 be c9 23 22 3c c0 eb b4 3e
       0.05091772 -0.32412872 0.009896227 0.35336113
0001e0 04 2a 73 be 7f 17 05 3f be 99 4c 3f 31 3b e1 be
       -0.23746496 0.5198898 0.7992209 -0.43990472
0001f0 7f 57 05 3f 14 41 23 3e 5c 6c 13 3e f6 29 3f bf
       0.52086633 0.15942794 0.14396805 -0.746734
000200 66 ea a7 be 35 99 d5 3e fa be 85 3d 7c ab af bc
       -0.3279602 0.4171845 0.065305665 -0.021444075
000210 7c cc 4d bd fd 32 82 3d d3 4b 3b bb 33 e0 8f 3c
       -0.05024384 0.063573815 -0.002857913 0.017562961
000220 e2 3a c0 3c 3c b3 02 bc 0e 95 fd 3e 71 dc 72 3c
       0.023465578 -0.007977303 0.49527782 0.014823065
000230 09 8b c4 bc 44 73 f9 3d e0 30 06 3d 2f ea 34 3d
       -0.023992078 0.12180188 0.032761455 0.044168647
000240 af 3d 13 3d 44 31 84 bd 90 00 0e 3e 62 35 83 bd
       0.035947498 -0.06454709 0.13867402 -0.06406666
000250 53 4f 99 3d be 6e 5d 3d 71 ec 22 bd ac 18 03 3e
       0.07485833 0.05406069 -0.03977627 0.1280238
000260 e5 46 15 3e 91 b9 8f 3c 8c ae 4c be aa c5 96 3b
       0.14577825 0.01754454 -0.1998846 0.0046012
000270 91 62 76 3d a2 da 43 3e db 27 8a 3e f7 40 04 3e
       0.060152594 0.1912637 0.26983532 0.12915407
000280 0b 6f 47 3c a0 05 3d 3e 01 3d c0 bd a4 53 8c 3d
       0.012172471 0.18459177 -0.093866356 0.06851891
000290 32 a3 0d 3e 41 86 95 bd e6 02 48 be 20 1e 37 3b
       0.13831785 -0.073009975 -0.19532356 0.002794154
0002a0 23 23 d9 bc ac fb 45 bc 6c fd 53 be 40 17 87 be
       -0.026506012 -0.012083929 -0.20702142 -0.26384926
0002b0 d1 30 7a bc be ed fc 3d 8b 51 f5 3b 65 ff d2 3b
       -0.015270428 0.12350033 0.0074865273 0.006439137
0002c0 45 bd 01 3e 6c da 08 3e e6 16 14 bc 19 44 66 3d
       0.12669857 0.13364571 -0.009038663 0.056217287
0002d0 28 a6 c2 bd fb 13 a7 be ed d9 5a 3d 61 df 9a 3d
       -0.09504348 -0.3263243 0.053430486 0.075621374
0002e0 dc 91 e7 bd cd 80 b1 bc 81 96 58 be a1 48 0e be
       -0.11307117 -0.021667862 -0.21151163 -0.13894893
0002f0 d6 9d 30 bd 0f 70 ca 3d 3a af 10 3b e4 57 43 3e
       -0.043119274 0.09884655 0.00220771 0.19076496
000300 ee a8 98 be bf a3 b0 bd 4b 1d 08 be a6 da f1 bd
       -0.29816383 -0.08624982 -0.13292424 -0.11809282
000310 9d da 11 be 77 0a aa 3e e3 cc 0d be 38 54 7a 3e
       -0.1424355 0.3321111 -0.1384769 0.2444619
000320 be 23 03 3f b5 41 cf be 2e b6 b2 3e f7 e1 85 bb
       0.51226413 -0.40479818 0.34904617 -0.004085775
000330 f9 a8 81 bd 44 5b 30 bf f7 bf cc be af e5 ca 3e
       -0.06331057 -0.6888926 -0.39990208 0.3962836
000340 a6 1d 05 be b3 8a b3 bd d8 cf bf 3d f7 17 52 3b
       -0.12999591 -0.08766689 0.09365815 0.0032057741
000350 e9 ee 3f bd 00 47 85 be 4e 64 22 bc 49 75 be 3d
       -0.0468587 -0.2603073 -0.00991161 0.09299714
000360 3e 5a 06 3f eb 27 5c 3d 67 3b c1 3d 83 91 6e 3d
       0.5248145 0.053749006 0.09435158 0.05824424
000370 a2 0e 67 bd 0c 5c 82 3e 4e 9a 9c bc 21 b2 a9 bd
       -0.05641044 0.2546085 -0.019116547 -0.082859285
000380 f5 a6 00 3e 09 05 a4 3d 47 03 a4 bd 09 8a 9d bc
       0.12563689 0.08008773 -0.080084376 -0.01923086
000390 b2 a0 be bd 18 35 be bd 91 27 b9 3d 16 a7 b5 bd
       -0.09307994 -0.092874706 0.0904075 -0.0886976
0003a0 37 91 40 3d 45 11 0f bc d1 3e b8 3d 89 07 0f bd
       0.047013488 -0.008732145 0.08996356 -0.034919295
0003b0 f5 d4 72 be 86 57 f7 3d ff a1 3a be db a0 2a bf
       -0.23714049 0.12077241 -0.18225859 -0.66651696
0003c0 3f 4a d3 3e 43 f8 28 be 0b cf c9 3d 36 c4 22 bd
       0.41267583 -0.16500954 0.098539434 -0.039737903
0003d0 f3 3b 3c 3f 1a 4f b3 3e d1 98 1d bf 16 ab 2b 3d
       0.73528975 0.35021287 -0.61561304 0.041911207
0003e0 71 23 f3 3c 5d 26 57 be 61 f1 95 3c dd ef d1 bc
       0.029679986 -0.21010728 0.018303575 -0.025627071
0003f0 1b bf ae 3d da c3 a0 3b d2 7c 4e bd c4 9b d6 be
       0.08532544 0.00490616 -0.050412007 -0.41915715

network.0.bias f4 [64]
000000 86 27 c6 3e 50 f6 d9 be 9a 18 f3 3e b3 9c dc 3e
       0.3870203 -0.42570734 0.47479707 0.43088302
000010 a0 36 c0 bd eb 2a b3 3e 67 c2 d7 be a4 5d cd be
       -0.09385419 0.3499368 -0.42140505 -0.40110505
000020 6e 3a a3 bd 78 15 3a 3e e9 3f b1 be d9 e8 5f 3e
       -0.07970129 0.18172252 -0.34619072 0.21866168
000030 95 d9 af bd 2c 70 90 be f8 3d 46 3e 72 29 ca 3c
       -0.08586422 -0.2821058 0.19359577 0.024677966
000040 88 9e 8b 3c c5 2b dc be 30 6d 2e 3d 1d 35 7b be
       0.017043367 -0.43002144 0.042584598 -0.2453198
000050 0a cb 82 3e ae 16 fb bd d9 d5 4c be 9e 5a 3e be
       0.25545532 -0.12260185 -0.20003451 -0.18589255
000060 bf a5 ba be 97 13 d5 3e 59 13 b0 be 0b 40 fb 3d
       -0.3645458 0.41616508 -0.3438976 0.122680746
000070 63 db 9c be 61 8a 3e be 1c d0 e1 3e 20 cf 9f be
       -0.3063613 -0.18607475 0.44104087 -0.3121271
000080 7c 9c e7 3e 1e 2c 62 be be 0b e6 3e 5d a4 1e be
       0.45236576 -0.22087142 0.44930834 -0.15492387
000090 7a e0 d2 bc 8b 99 fa 3e b9 fe c2 be 94 bd a6 be
       -0.025741804 0.4894527 -0.38084963 -0.32566512
0000a0 72 36 87 be 15 fd 53 3e 09 32 f5 3e fd d2 80 be
       -0.26408726 0.20702012 0.47889736 -0.2516097
0000b0 b5 9b e9 bc 7d a7 c8 3d 2f 61 48 3d 2c 76 f2 3e
       -0.02851663 0.09797571 0.048920806 0.47355783
0000c0 8e b5 9a 3e 3f 77 3b 3e 43 46 a7 3e 66 ee c1 3e
       0.3021664 0.18307208 0.32670793 0.37877196
0000d0 66 5b 97 be 58 1a 92 bd a3 c6 dd 3c 9d 4e bd 3e
       -0.2956192 -0.07133931 0.027072256 0.3697404
0000e0 6d db 8d 3e 58 80 72 3e 7c 46 f7 be 44 c4 1b be
       0.2770647 0.23681772 -0.48295963 -0.15211588
0000f0 a6 c1 13 3f f2 c8 71 3d 20 e0 35 bd 98 59 05 bd
       0.5771736 0.059029527 -0.044403195 -0.032556146

network.3.weight f4 [32, 64]
000000 48 82 23 be 1e 35 54 3d 7c 93 82 3d db 84 20 be
       -0.15967667 0.05180847 0.06375787 -0.1567568
000010 00 a8 41 bd 45 f3 48 3c 42 3a 08 3e d9 d2 88 bd
       -0.047279358 0.012265031 0.13303474 -0.06680841
000020 da 43 7a 3c 2f 3f 08 bd 81 6c 35 3d e8 9d 1d be
       0.015274966 -0.03326338 0.04429293 -0.15392268
000030 98 ac b0 3c ff 1b 9b 3d 58 bb 48 bd 9c a0 be 3d
       0.021566674 0.07573699 -0.04900679 0.093079776
000040 62 87 07 3e 01 ac 19 bd 62 0a 03 be a3 8c 26 bd
       0.13235238 -0.03751755 -0.1279693 -0.040661465
000050 23 ed 38 3d 9d c1 a7 bd 1c d0 8f 3d 88 5a 09 3e
       0.045148026 -0.08191226 0.070221156 0.13413441
000060 5c 8c b2 3c 2d 16 16 be 1f 85 b8 bd f5 cb fa bd
       0.021795444 -0.14656897 -0.09009766 -0.12245933
000070 b9 fd 92 bd e8 42 cd bd 2b 57 6e bd 74 ec 10 bb
       -0.071773 -0.10022527 -0.0581886 -0.0022113593
000080 aa dd fd bc b2 2e e9 3c 43 5a d8 bd 38 4e 11 3d
       -0.030989487 0.028464649 -0.10564091 0.035474986
000090 aa 94 42 3d 2e ee a8 bd c6 d7 32 be 41 27 b1 bc
       0.04750506 -0.08248554 -0.17465124 -0.021625163
0000a0 79 8e d6 bc 46 58 4c be cc a6 4b bd 10 77 95 bd
       -0.026190983 -0.19955549 -0.049719617 -0.072981
0000b0 19 ad 30 bd 26 1b e0 bd b4 fa b6 3d e6 96 8f bc
       -0.04313383 -0.10942678 0.089345366 -0.017528009
0000c0 9e 5e 53 3d c6 54 1e bd 4e c4 73 bc 4f 3a 12 be
       0.051603906 -0.038655065 -0.014878346 -0.14280055
0000d0 8f 7c 66 3d 2b 5a 5d bd ca 31 08 be ca fb e4 bd
       0.056271132 -0.05404107 -0.13300243 -0.111808375
0000e0 32 a2 c9 bd e8 d3 ef 3b ea a1 76 bd 5c bc 23 3d
       -0.098453894 0.0073189624 -0.060213007 0.039974555
0000f0 76 0c 0e 3b 8d 85 c6 bd fc df ce bd f1 d1 0d 3d
       0.0021674908 -0.096934415 -0.101013154 0.034624044
000100 dc d5 f7 bd c6 cc 47 bd c9 48 d8 3c 91 16 f0 bc
       -0.12101337 -0.04877927 0.026401894 -0.029307636
000110 c7 d3 28 be 90 01 dc 3b b4 1b 22 bb 79 f2 38 bd
       -0.16487037 0.0067140535 -0.002473575 -0.045153115
000120 b2 e7 c5 bb 32 44 b1 bd a9 71 28 be 4e 35 bf bc
       -0.006039583 -0.08655585 -0.16449608 -0.023340847
000130 70 bf bf bc 32 7b 42 bd 07 41 4b bb d4 19 8b 3c
       -0.023406714 -0.04748077 -0.00310141 0.01698009
000140 4f e8 ab bc 13 73 0e bd f6 1b ab bd 63 df d9 bc
       -0.020984797 -0.034777712 -0.083549425 -0.026595777
000150 f9 e4 33 bd 35 2a ad 3c 72 b1 8e bd 3f d7 e0 3c
       -0.043919537 0.02113829 -0.06967439 0.027446387
000160 9f 45 ae bd d1 e8 c3 3c ef 76 8e 3d 0e 59 16 3e
       -0.08509373 0.023914726 0.069562785 0.14682409
000170 a1 22 8a bd 7a 58 59 3d 23 5f 94 3d 97 7d 52 bd
       -0.06744886 0.053062893 0.072447084 -0.051389303
000180 87 41 6b bd 1e 4d 95 bd 43 c2 03 3e 2f 36 9a bd
       -0.05743554 -0.072900996 0.12867074 -0.07529866
000190 15 10 8f bd eb 9b 8d bd 08 91 21 bd fd 35 53 3a
       -0.06985489 -0.069145046 -0.039444953 0.0008057056
0001a0 fb 3e 2a be 0b de db bc 46 80 92 3d 79 65 73 bd
       -0.16625588 -0.026839277 0.071533725 -0.059422944
0001b0 0a 41 1e 3d 18 6f c1 bd 50 61 92 3d 82 de 85 3d
       0.038636245 -0.094450176 0.07147467 0.065365806
0001c0 43 2c 7f 3d 13 a2 86 3d ca 9e 68 3d 64 17 51 bd
       0.06229807 0.06573882 0.056792058 -0.051047698
0001d0 fc 9f 5d bc 60 bd 60 bb 32 30 bf 3c bd d1 95 bd
       -0.013526913 -0.0034292564 0.023338411 -0.07315395
0001e0 ca 2c 68 3d 18 d2 c1 bc f7 01 04 be ed d1 a6 3c
       0.05668334 -0.02365975 -0.12891375 0.020363772
0001f0 cd be 5b 3d 67 4a 4d bc e2 0a c6 3d c0 41 67 be
       0.05364876 -0.012529946 0.096700445 -0.22583675
000200 e4 a6 06 3d 0c 05 53 be 0e d0 83 3d d3 20 90 bd
       0.032874003 -0.20607394 0.06436168 -0.07037511
000210 c2 98 e4 bd ca c8 a5 3d 49 34 ea bd b9 35 a8 bc
       -0.11161949 0.08094938 -0.11435754 -0.02053343
000220 a1 96 f2 bd 62 13 1c 3c 62 8c 1e be 89 b3 f3 ba
       -0.118451364 0.009526106 -0.1548324 -0.0018592934
000230 ff 88 a7 bd 70 c5 40 bc 49 93 b5 3d f7 cb 83 bd
       -0.08180427 -0.011765823 0.08865983 -0.064353876
000240 d9 e8 00 be 66 63 4d 3c f9 fd 01 be fe 74 2c be
       -0.12588824 0.012535905 -0.12694539 -0.16841504
000250 0d 9e 2b 3d d4 35 ba 3d ad e7 c6 3d 52 7f 96 bd
       0.041898776 0.09092298 0.097121574 -0.07348503
000260 ce a3 13 be 4c 60 8f 3b dc af bf bd fe df 1a 3e
       -0.14417955 0.004375493 -0.093597144 0.15124509
000270 b5 d7 87 bd 51 c2 12 bd 46 c6 52 3d 17 64 ef bd
       -0.0663294 -0.035829846 0.05145862 -0.116890125
000280 dd 0c 88 bd 72 92 ea bc 35 5f 5b 3c 5e 6e 90 bd
       -0.066430785 -0.028634284 0.013389398 -0.07052301
000290 ce 09 ed bd 2b 07 12 be 71 e5 0a bd 51 45 6a 3d
       -0.11574136 -0.14260547 -0.03391022 0.05719501
0002a0 3d 90 6c 3c 71 73 8c bc 73 9b c0 bd 7b fd 4a bc
       0.014438686 -0.01714489 -0.094046496 -0.012389536
0002b0 0e 90 78 bd 78 0f 0b 3e 41 9e a4 3d ff 90 39 3c
       -0.060684256 0.1358012 0.08037997 0.011326074
0002c0 8d cb df bd 03 16 c7 3d ca 19 46 be cc 37 b2 3d
       -0.10927496 0.09720995 -0.19345775 0.08702049
0002d0 61 49 95 3b d3 95 ca bd 42 2a 27 3d 54 25 70 3d
       0.0045558666 -0.09891858 0.040811785 0.05862935
0002e0 0a 27 d5 bd 14 7b b9 3d ba a0 e4 bd 25 3f eb bd
       -0.10407837 0.090566784 -0.11163469 -0.11486653
0002f0 15 e5 89 bd de 12 4b 3d fc 0b 91 3d 07 0d 01 bd
       -0.06733147 0.04957854 0.07082364 -0.031506564
000300 78 5c 0e be e6 38 77 bd c4 b9 32 be ae a9 c0 3b
       -0.13902462 -0.060356997 -0.17453676 0.0058796024
000310 9c a4 2d 3e 48 fe 23 bc b2 5b f5 bc b4 67 b1 3d
       0.16957325 -0.010009356 -0.02995095 0.08662358
000320 79 62 3a bd 29 32 3d be c9 ed ba 3c 18 6c 3b bd
       -0.045504067 -0.18476166 0.022818463 -0.045757383
000330 13 cb 13 bd c2 35 c7 3d d2 03 bd bc f3 61 40 3c
       -0.03608234 0.0972705 -0.02307311 0.011742103
000340 20 b4 54 3d 69 2a 47 bd 0b e6 95 bd 9f 53 f3 bc
       0.051929593 -0.04862443 -0.07319268 -0.02970296
000350 a5 42 ca bd 15 29 42 be 6b 5c 33 3c 37 ca e0 3d
       -0.09875993 -0.18960984 0.010947327 0.109760694
000360 88 0e 0a 3d 0c b7 6c 3c 59 a5 96 bd 3d 0f 5c bd
       0.033705264 0.014447939 -0.07355756 -0.05372547
000370 45 17 f8 3c d0 1c 02 be 20 0a 32 3d 2b 63 38 bd
       0.030284533 -0.12706304 0.043466687 -0.04501645
000380 7e 5b 96 bc 14 26 22 3e 4a a9 76 bd 50 83 ba 3c
       -0.018354174 0.15834838 -0.06022004 0.022767693
000390 49 8c e1 bd 3e cc 88 bd ee 87 50 bd d7 1c c0 bc
       -0.110130854 -0.06679581 -0.050910883 -0.023451252
0003a0 ac fd 0f 3e fb f2 0f 3d ec 1a e1 bd c6 ec 11 3c
       0.14061612 0.035143834 -0.10991463 0.008906549
0003b0 51 96 01 bd b6 9b 92 3d e8 e7 14 bd 3c 9d 57 3c
       -0.031637494 0.07158606 -0.036353976 0.013160046
0003c0 b1 0b 52 bd 0a d5 99 bd 5b d4 42 be e4 a9 e6 bd
       -0.05128068 -0.07511337 -0.1902632 -0.11262873
0003d0 ae 33 09 be 70 22 88 bd 4a 68 f9 3c 12 ee 0e bd
       -0.1339862 -0.066471934 0.030445237 -0.03489501
0003e0 a9 77 54 bd 53 5e e9 bd 20 f6 18 bd 96 1a e9 bb
       -0.05187193 -0.11394944 -0.037344098 -0.007113765
0003f0 b7 d1 b7 bd b5 27 66 bd f7 a0 d1 bd e2 72 94 bd
       -0.08975547 -0.05619021 -0.1023578 -0.07248475

network.3.bias f4 [32]
000000 3c 1b 02 be 0f d2 f5 3e 10 c4 bd 3e 45 4b 8d bd
       -0.12705702 0.48011824 0.37063646 -0.06899122
000010 8e ed 51 3e b3 36 62 be f4 11 27 3d 67 b6 f4 3c
       0.20500776 -0.22091179 0.040788606 0.029872132
000020 54 cb 87 bd 75 0d fd 3e 42 9e 0d 3e 7c 88 6d 3d
       -0.06630579 0.4942433 0.13829902 0.05799149
000030 12 ab 35 3f b5 16 3e bc 2f 5e f7 3e 32 f8 88 3e
       0.7096416 -0.011602093 0.48314044 0.26751858
000040 f2 c5 ed 3e 7f 3f 3c bd 19 e6 cd 3e 13 5e e5 bd
       0.46440083 -0.045958992 0.40214613 -0.11199584
000050 35 7a 14 3f 0b 7c 21 3f 29 13 88 be 98 d9 0e 3c
       0.57998973 0.630799 -0.26577118 0.008718871
000060 d9 91 9e 3e 83 21 1f be 74 43 2f 3f c0 e8 13 3f
       0.30970648 -0.15540127 0.684623 0.57777023
000070 50 a6 a5 3e 82 e1 ea 3e 71 27 01 3f 0e dc 7f be
       0.3235345 0.45875174 0.5045081 -0.24986288

network.6.weight f4 [1, 32]
000000 b7 95 a9 3d b7 b0 8d bd 0e 65 df bd 9b 81 fa 3d
       0.08280509 -0.06918471 -0.109079465 0.122317515
000010 a1 c0 56 bd c3 4c b2 3d 13 6d dc 3d 67 75 73 3d
       -0.0524298 0.087060474 0.10762992 0.059438135
000020 77 c8 f8 3d 08 fc 01 bd 5f 30 c8 bd d0 1f d8 3d
       0.12147611 -0.031734496 -0.09774851 0.10552943
000030 4f 1d 50 bd d8 7a 9f bd 30 4a 7e bd 3a ba 56 bd
       -0.0508092 -0.077871025 -0.06208247 -0.052423693
000040 b1 aa 20 bd f9 43 09 3d fb 13 37 bd af 8b 78 3d
       -0.039225284 0.03351209 -0.04469679 0.060680088
000050 cb 16 2b bd 33 64 03 bd ac db 7f 3d d8 4d 91 bd
       -0.041769784 -0.03207798 0.062465355 -0.07094926
000060 0c 4a 6e bd 06 90 6e 3d aa 91 25 bd 15 b7 7c bd
       -0.058176085 0.05824282 -0.04042212 -0.061698038
000070 6d 38 83 bd 1c b5 6e bd cd ab 16 bd de 6b 10 3e
       -0.06407247 -0.058278188 -0.036784936 0.14103648
