src/pytorch/ctr/202509v1/criteo_ctr_model.onnx (onnx, 19799 bytes, 5 tensors)

network.0.weight f4 [64, 39]
00000000: fa85 093e d834 273e 3459 8cbd a795 89bd
00000010: c586 ffbd deaf c6bd eb4c 5abd f479 42be
00000020: 7913 a53c 40bd c33d 514a 343d 3364 243e
00000030: 0b7a a2bb 787f 863d a828 273d 2353 00be
00000040: feba febd e4c6 973d a93b 033e d2f3 103d
00000050: 2c3c 92bc 1ce2 0cbe 0a9b ea3c 17db d0bc
00000060: 7165 b03b e952 66bd e11a 813d d3e7 aabc
00000070: 51a6 7e3d cc0b d33d 2c35 933c 5b1e f93d
00000080: 2b38 0dbe ab54 95bd 3608 623c f597 25be
00000090: 8069 e33d 60c9 ce3d afc0 c2bd db02 fa3d
000000a0: f628 08be c239 debd cf59 3ebe 019b 08be
000000b0: f7f9 733c c6b2 0b3e 537a 27be 6aa0 11be
000000c0: d207 813d cde7 603d 6dc2 293d a94a c83c
000000d0: fc7d c53c 9c59 b7bd c55c ca3d 2fae c6bd
000000e0: 49bb f13b b446 2ebd 2c6d c23d 7ed4 0abe
000000f0: 8a50 4f3d dcba 60bd 67bb 0bbd 0a35 473d
00000100: feca b73d 926c 1ebe 364d 253e e0b3 973d
00000110: 44d3 a63d 00e0 98bd 2b64 8f3d bb6b 75bc
00000120: 551f b4bd dffc e0bd 51ea 9fbc a317 1fbc
00000130: 58b4 25bc 09a8 983d 5a7f 7abc dbeb 8e3d
00000140: dbe9 4d3b b8b6 82bd 2a88 7a3e da85 e93c
00000150: a36e 2c3c 1b6a f63d c2a5 4c3d db11 123d
00000160: 1255 2bbe bf84 41bb 4126 3ebc 0773 ff3d
00000170: bc73 4b3d d149 0b3e a89f 0f3e 0b83 d1bd
00000180: b2fe c1bd e371 23be 14fc 1f3e 2d06 38bd
00000190: 474f 01be 459e 0bbe 85e8 c03d 2f83 09be
000001a0: 5131 5cbd a005 433d 8cb1 663d a976 6bbc
000001b0: 9979 993d 832f 4f3d aafe 7fbd f882 2b3e
000001c0: d036 13be 0142 c1bd b08b 833c 6e4e 89bc
000001d0: 8605 97bd 54c8 463d e464 fb3d e8e0 e83d
000001e0: 7869 3c3e 3248 51be faf7 2cbe c15c b4bc
000001f0: b852 f33d 4e8d 0a3e a1cf 1dbe 4bcc bd3d
00000200: a62a 973d 4b6f 9cbd f566 debc 3730 053e
00000210: 45a0 2e3e b778 923d 795d 8dbd e575 b23d
00000220: 5bfa adbc a1f3 55bd 75cf febb 45a0 d63c
00000230: f1f3 683d 4be4 01bd 0d4b 043e f21a 04bd
00000240: fada 123d 0ce8 bcbd ef2d 60bd cd5c 46bd
00000250: 4312 7ebd fea7 c9bc b6da ae3d cb1f 0cbd
00000260: 1114 41bd 9906 ecbd ccae 9a3d 46fc 1fbd
00000270: 4c8d 07be 12cc c63d 676d fd3d 3aef 1e3e
00000280: 9b74 713d 472f 393e e277 3abe 3ab3 a2bd
00000290: 5654 b7bd 2e2d aa3d 28bf 3bbe 0115 033d
000002a0: 5b87 b13d 5fbe 8a3c edc1 c43d cc43 adbd
000002b0: e722 04be 284a e23d 0f5e 0cbe f216 03be
000002c0: 78db 003d 0d6a 2d3e 53a0 c6bd f9f2 77bd
000002d0: bf3d 73bd 0995 5b3c 3bfa 8f3c ba55 9ebb
000002e0: 2c12 e3bd 855f ac3a d84b 6cbd 0bad 2dbd
000002f0: cdbe deba f164 323d 377b 383d dac0 0f3e
00000300: c69d d43c 4179 89bd 0025 0a3e 7a5a 833d
00000310: fd27 e4bc d5f7 1bbe 6d18 94bd 1dcd 273e
00000320: ef7e b73d 5baa 7cbe a46a 3c3e 8581 c73c
00000330: 0c00 043e 69f0 92bd 12e5 72bd dfbe d83d
00000340: 5515 d1bd 8ef1 d3bd 5776 d8bd ed59 94bd
00000350: 72bd c5bd 3678 ad3d 7e35 01be fa7f 1d3b
00000360: e478 333e f464 90bd 1cd3 59bd 5218 113e
00000370: c3e3 ecbd 4370 90bd e376 bcbc d021 47bd
00000380: 25f5 103e ce02 063e 4f63 85bd a57b 03be
00000390: cc2b ddbd ed4b 82bd ad4e cd3d 762c 133e
000003a0: 9633 a9bd e933 3ebe 4628 37be 48fc a0bc
000003b0: 0de2 163e 9b61 5f3d d879 af3d 9e0c 6d3e
000003c0: bc96 27bd d90a 463e baa7 233e b405 273d
000003d0: 151f 533c f3dc e7bd af87 113e c050 953c
000003e0: 7412 313d 2f94 b43d ce71 ff3c 1fde 0bbe
000003f0: ca2f 953d 1721 04be 1d3f 283e 8ea6 643d
0.13430014 0.16328752 -0.06852952 -0.06717997 -0.12476877 -0.09701513 -0.05329601 -0.18991834
0.020150887 0.09557581 0.044016186 0.16053848 -0.0049583963 0.065672815 0.040810257 -0.12531714
-0.1243801 0.07410982 0.12815727 0.035388775 -0.017850958 -0.13758129 0.028638382 -0.025495095
0.0053831865 -0.056231413 0.06303955 -0.020862496 0.06217033 0.103049845 0.01796969 0.12163993
-0.13790958 -0.0729154 0.013795903 -0.16171248 0.11104107 0.10097003 -0.09509408 0.12207576
-0.13296875 -0.1085086 -0.18588947 -0.1334038 0.014891139 0.13642415 -0.16355257 -0.1422135
0.0630032 0.054908562 0.041445184 0.024449663 0.024107926 -0.089526385 0.09880976 -0.09701192
0.0073770625 -0.042547897 0.09493479 -0.13557622 0.050613917 -0.054865703 -0.034114268 0.048634566
0.089742646 -0.15471104 0.16142735 0.07407355 0.081457645 -0.074645996 0.070015274 -0.014979298
-0.087950386 -0.10985731 -0.01952091 -0.009710225 -0.010113798 0.07453925 -0.015289152 0.069785796
0.0031419906 -0.06382507 0.24466005 0.028506208 0.010524425 0.12031957 0.049962766 0.03566156
-0.1673167 -0.0029528586 -0.0116058 0.124731116 0.04967092 0.13602377 0.14025748 -0.102300726
-0.094724074 -0.15961413 0.15623504 -0.044927765 -0.12627898 -0.13634594 0.094193496 -0.13428949
-0.05375797 0.047612786 0.056321666 -0.0143715525 0.07493896 0.05058242 -0.062498726 0.1674918
-0.14376378 -0.09436417 0.01605782 -0.016761031 -0.073741004 0.04853089 0.12275103 0.113710225
0.18399608 -0.20437697 -0.1689147 -0.022016885 0.11881012 0.13530466 -0.15411235 0.092674814
0.073811814 -0.07638415 -0.027148703 0.13006674 0.17053325 0.07151931 -0.06902594 0.08713893
-0.021237543 -0.052234296 -0.0077761956 0.02619947 0.056873266 -0.031711858 0.12919255 -0.03225226
0.035853364 -0.09223947 -0.054731306 -0.048428345 -0.062029134 -0.024616238 0.085378096 -0.034210008
-0.047138277 -0.11524696 0.07552871 -0.039058946 -0.13237494 0.09706892 0.123743825 0.15520945
0.058949094 0.18084441 -0.18209794 -0.07944341 -0.08951633 0.083093986 -0.18334639 0.032002453
0.08668395 0.01693648 0.09607301 -0.08460197 -0.12903939 0.110493004 -0.13707756 -0.12801722
0.0314593 0.16934986 -0.09698548 -0.06053445 -0.059385058 0.013402232 0.017575374 -0.0048319967
-0.110874504 0.0013151026 -0.057689518 -0.042401355 -0.0016994119 0.043553296 0.04503938 0.14038411
0.025954138 -0.067125805 0.13490677 0.064137414 -0.0278511 -0.15231259 -0.07231221 0.16386838
0.089597575 -0.2467436 0.18400055 0.024353752 0.12890643 -0.07174761 -0.05930049 0.10583281
-0.10209147 -0.10348807 -0.105694465 -0.072437145 -0.096552745 0.08470194 -0.12618062 0.0024032579
0.17526585 -0.07050505 -0.053179845 0.14169434 -0.115668796 -0.07052662 -0.023005908 -0.04861623
0.14156015 0.13087007 -0.06513082 -0.12840135 -0.10799369 -0.06362138 0.10024772 0.14372429
-0.08261792 -0.1857449 -0.17886457 -0.019651547 0.14734669 0.054536443 0.08568162 0.23149344
-0.040915236 0.19340076 0.15981951 0.040776923 0.0128858285 -0.113214396 0.14211915 0.018226981
0.04323049 0.08817326 0.031182196 -0.13658951 0.07284506 -0.12903248 0.16430326 0.0558229

network.0.bias f4 [64]
00000000: 3311 9bbd 5891 b2bc f4c2 b0bd 638d 103d
00000010: 34a9 073e cfd6 a1bc 3a53 9b3d 9250 1dbe
00000020: e3a4 7cbb cbbf 85bd 7431 f5bd 99bc 97bd
00000030: 0e47 b23d 0bb7 883d a6d8 b0bd 0d81 833d
00000040: 8c97 d83c 9794 d93d 553d f6bc d59f d2bc
00000050: 3355 2fbe 6879 b03c 15fe fd3d 495e e33d
00000060: ba00 aebd 2127 91bd a525 97bd fe11 09bd
00000070: 475b 1d3e 2a17 4bbd f619 0d3e 0300 fb3d
00000080: 9934 ec3d 5ce3 0e3d 0c1c 2f3e 5e62 89bd
00000090: a466 01be ae57 2fbc 8dbc 05be 5cdb ac3d
000000a0: e74c 313d bf4f ab3b 4f66 393c 6eb1 66bd
000000b0: e8d9 f2bd e305 09bc c41c 243e 2562 08be
000000c0: 8ce7 993d ba21 923d dd7f 893d f8c1 b9bd
000000d0: a7e5 6d3d 6a9a c83d 4099 0fbe c624 32bd
000000e0: 9cdd f43d e4fd 8fbd d1e6 25be 04fa 9fbd
000000f0: 6f53 a7bc 5cc5 4b3c 85a7 3ebe a441 413a
-0.0757164 -0.02179782 -0.08630934 0.035291087 0.1324814 -0.019755749 0.075842336 -0.15362766
-0.0038550429 -0.06530722 -0.11972323 -0.07409019 0.08704959 0.06675538 -0.086350724 0.06421099
0.02643945 0.106240444 -0.030058542 -0.02571098 -0.17122345 0.021542266 0.12401978 0.11101968
-0.08496232 -0.07087541 -0.07380227 -0.033464424 0.15366851 -0.049582638 0.13779435 0.122558616
0.1153347 0.034884796 0.17100543 -0.06708215 -0.1263681 -0.010702057 -0.13060208 0.08440277
0.04328623 0.0052280123 0.011315896 -0.056321554 -0.118579686 -0.00836322 0.16026598 -0.13318689
0.07514867 0.07135339 0.06713841 -0.090702 0.05808034 0.09795077 -0.14023304 -0.0434921
0.11956331 -0.07030848 -0.1620133 -0.078113586 -0.020425526 0.012437191 -0.18618591 0.0007372147

network.3.weight f4 [32, 64]
00000000: 94cb 88bc b71f 4a3d 52b6 423d d3bd 51bd
00000010: 542d 933d 1e21 edbb 54a5 123d a7d0 c73c
00000020: 3be7 c83d 032c e73d 54c8 2b3d bdc2 d3bc
00000030: 1207 2e3c cd56 0a3d 70e7 ebbc 83a9 8ebb
00000040: de18 ae3d 1e6a cc3d 89bc a53d 9b7c cbbd
00000050: d5bb 1dbd 0248 3fbd 240d cfbd e730 943d
00000060: 6e1b 943c 42d2 2a3e a8d6 89bd fe99 993d
00000070: 741c 933d b167 abbc 70de ffbc 745c 26bd
00000080: 56ec 78bd cf37 0a3d 74de 593d 0d7e 963d
00000090: 13e5 72bd 1d16 833d 558f ebbb b6c2 173d
000000a0: 097c 393c fb46 183d 24a7 82bd 5152 b23d
000000b0: 256f 003e 01af 373d 638c 213d 169d 083e
000000c0: 90fa ec3b d2b4 e63d 8754 efbd 7d6b bfbc
000000d0: 02d6 bebc b74a 533d c41c 56bd 6f8a 23bd
000000e0: cd50 b53d 71b2 bebd 7d93 553d d2e6 94bd
000000f0: f738 ebbd 40ea e6bc c999 ff3c a467 033e
00000100: 6723 cdbc e58e 803d 49b0 353c 878b fc3d
00000110: c2b0 bb3d a550 733c 436c a4bd 135b b3bd
00000120: 6f9e 04be c6f0 b83d 7247 303d e447 2ebd
00000130: cd51 dcbd 1bea 863d 852f 523d d30d 343c
00000140: a0d1 e6bc afa0 be3c 463e 8e3d b4b0 b8bd
00000150: 0ffd c6bd bb72 d9bd 0916 c23d 893c fbbc
00000160: d2db 23bd b605 1dbd 6050 033e b45f 17be
00000170: 069d c73c 0b5c 7abd 8041 573d 92f8 573d
00000180: 61b6 433d c742 71bd 457c cbbd 1f69 15be
00000190: d715 a53d 1392 bdbd b955 18bd 5d39 9dbd
000001a0: 9015 aebd 6f93 98bd 3359 893d e75a a63d
000001b0: a964 ffbd e96e 9e3d 9005 613d e57c 61bd
000001c0: 15a0 c6bd 0c21 cfbd 11a0 67bd 80e1 6dbc
000001d0: cef8 e2bb 76cc 4cbd c701 b13d 01bd 0f3d
000001e0: c512 b3bc e0c8 123e db7b 333c ec55 3d3d
000001f0: 732e 5a3d c285 d83c 97ae 5e3d f446 173d
00000200: 92af 873d 46a9 2d3d 0b69 bfbd f39a 21be
00000210: 0e2d 94bd 0481 1fbd 6432 1dbc 384a 3bbc
00000220: 455a d03d 3179 553d ac10 d43d fcad aa3d
00000230: 4581 00be 61cb c7bd d1ed fbbd 8bc9 aa3b
00000240: 9633 ab3d fc67 c03d b7a8 0f3d ebcf a4bd
00000250: e7db 99bd 5dae b23c 8417 ff3a 6600 c93c
00000260: d94b aabd 2c02 19be 0f43 063e d2d8 71bc
00000270: e3de cf3d 3267 34bd d424 8a3d 3748 a83d
00000280: 69fe 2d3c 6083 c8bd 950a 4ebd 3158 3d3d
00000290: c1cb 7b3c 39b5 ecbd 5e49 a4bc ff3d 04bd
000002a0: 0eb7 f4bd 5bda 05bd 7206 edbd 9bcc 993d
000002b0: 66dd b7bd ad4a 8cbd 4d45 b23d 91cd f1bd
000002c0: 665e 8c3d c718 4fbd b6ef dd3d c819 743d
000002d0: 0f82 833c 22ac 0cbe 1dba 5f3d d6ff d9bd
000002e0: 8273 913d 844e 14be 9d59 ddbb ed62 e03c
000002f0: 21b2 10be 835a eebd 807f 8e3d 9fba 05bd
00000300: 3a47 b2bd fc12 863d 18db bb3d cd81 a9bd
00000310: 3e5d 733d 9553 063e 1ac7 b83c b34b e9bd
00000320: 2bb3 1f3e 42e2 2f3c 7365 f0bc df01 2d3d
00000330: e75d dc3d 9202 093e 7fc3 a1bc 5492 cebc
00000340: 999a 353e d240 953c b85e f83d 586e 3abc
00000350: 0921 01be cbfc 8cbc 522a a83d 94e0 ff3d
00000360: e5a0 283e c63a c03d ca2c b3bd 1d3b 683d
00000370: 9523 b5bc e1c1 a23d 3c03 46be 86ae 67bd
00000380: 1155 69bd d5d6 983d 3003 60bc fada 14bd
00000390: 59d9 383e 64d6 a6bd eff6 e0bb 84b5 0f3e
000003a0: a861 f03d 3546 363e 944c 943d 4036 803d
000003b0: 7a77 6dbd c03f ebbc 6d62 13bd a45d 503e
000003c0: 9a17 9f3d b466 11bd fdcb 1d3c 2c9c 8cbd
000003d0: fa7e 3f3d fcb5 683e be0e cb3d a9a4 dc3d
000003e0: 28d0 89bd 2fc8 b1bb 5b80 a2bd 1215 a1bc
000003f0: cad2 a83d 8ca1 9e3c 806d a03c b7d9 173e
-0.016698636 0.049346652 0.047537155 -0.05120642 0.0718638 -0.007236614 0.0358022 0.024391485
0.09809729 0.112876914 0.041939095 -0.025849694 0.010621803 0.033774186 -0.028796881 -0.0043537035
0.08500837 0.09981178 0.08092601 -0.09935876 -0.03850921 -0.04669953 -0.10109928 0.0723589
0.018079486 0.1668177 -0.067303956 0.07500075 0.071831614 -0.020923467 -0.031233996 -0.040615514
-0.060772263 0.03374463 0.053190663 0.07348261 -0.059300493 0.06400702 -0.0071887174 0.037050925
0.011321076 0.037177067 -0.06379536 0.08707107 0.12542398 0.04484463 0.039440524 0.13341174
0.007232018 0.112649575 -0.11686044 -0.023366684 -0.023295406 0.051584926 -0.052273527 -0.039926942
0.08853302 -0.09311379 0.05214261 -0.07270588 -0.114854746 -0.028187871 0.03120126 0.12832505
-0.025041295 0.06277255 0.011089393 0.123313 0.09164573 0.01485077 -0.08028462 -0.087576054
-0.12951063 0.09030299 0.043036886 -0.04254903 -0.1075779 0.06587621 0.05131485 0.010989624
-0.028176129 0.02326998 0.069454715 -0.090180784 -0.09716236 -0.10617586 0.09476859 -0.030668514
-0.04000456 -0.038335524 0.1282363 -0.14782602 0.024366867 -0.061122935 0.0525527 0.05272729
0.047781352 -0.058901574 -0.09935812 -0.14590882 0.08060806 -0.09256377 -0.037191126 -0.07676957
-0.085002065 -0.07449996 0.067064665 0.08122807 -0.12470371 0.07735998 0.054936945 -0.05505075
-0.09698502 -0.10113725 -0.056549136 -0.014519095 -0.0069266325 -0.049999677 0.08642917 0.035092358
-0.021859536 0.1433444 0.010954822 0.04622452 0.053266954 0.026430968 0.05436572 0.0369329
0.06625284 0.04239776 -0.09346207 -0.15781765 -0.07235156 -0.0389414 -0.009594534 -0.011431269
0.101734675 0.05211753 0.103547424 0.08333966 -0.12549312 -0.09755588 -0.12301219 0.005212014
0.083594486 0.093948334 0.03507301 -0.0804747 -0.07512646 0.021811659 0.0019461964 0.024536323
-0.08315248 -0.14942235 0.13111518 -0.014761167 0.10149934 -0.044043727 0.06745306 0.08216899
0.010619738 -0.09790683 -0.05030306 0.046226684 0.015368403 -0.11558003 -0.020054515 -0.032285687
-0.119489774 -0.032678943 -0.11573495 0.075097285 -0.08977775 -0.06850181 0.08704624 -0.11806787
0.068539426 -0.05056074 0.10836737 0.0595949 0.016053228 -0.13737538 0.05462085 -0.106445
0.071021095 -0.14483076 -0.0067550675 0.027390921 -0.14130451 -0.116383575 0.069579124 -0.03264868
-0.08704992 0.0654659 0.09172648 -0.08276711 0.059415095 0.13117822 0.022555877 -0.113913916
0.15595691 0.010735096 -0.02934525 0.042238113 0.10760098 0.13379887 -0.01974654 -0.025216259
0.17734756 0.018219385 0.12127441 -0.011378847 -0.12610258 -0.017210385 0.08211197 0.12494007
0.16467626 0.0938621 -0.08748777 0.056697 -0.022111693 0.07947136 -0.19337171 -0.056562923
-0.05696589 0.07462851 -0.013672635 -0.036341645 0.18051662 -0.081463605 -0.0068653743 0.14034086
0.117373765 0.1780022 0.072411686 0.06260347 -0.05797527 -0.028716922 -0.035982538 0.20348221
0.077681735 -0.035498336 0.009631154 -0.06865725 0.046751954 0.22725672 0.09914921 0.10773594
-0.06729156 -0.005425475 -0.07934638 -0.019663367 0.0824333 0.01936414 0.019583464 0.14829145

network.3.bias f4 [32]
00000000: 82f6 093e 1903 d13d bb43 e8bd ec34 a13d
00000010: db1c b43d 3367 a9bc ef3c f6bd 95c6 13be
00000020: 52cc 793d 9c4f 8c3d 70f6 6bbd a8ba 8b3d
00000030: 683b 3f3d 4ed9 063e 685e 84bd b963 e7bd
00000040: 3125 f9ba 484d d73d 5300 433d 4874 2e3d
00000050: d1eb 83bd 60d4 dabc 84da 2c3e ecb7 0f3e
00000060: 5897 17bd f9e1 edbc 26dd f13d 9f7c cf3d
00000070: 9eeb bd3d 5fe2 e3bc a5a5 263e d83d 823d
0.13472942 0.10205669 -0.113410436 0.07871422 0.08794566 -0.020679092 -0.12023341 -0.14431222
0.06098587 0.06851122 -0.057608068 0.06822711 0.046687514 0.13168833 -0.06463319 -0.112983175
-0.0019008276 0.10512787 0.04760773 0.042591363 -0.06441463 -0.026712596 0.16880232 0.14035004
-0.037009567 -0.029038416 0.11809759 0.101311915 0.09273456 -0.027817903 0.16274126 0.06359452

network.6.weight f4 [1, 32]
00000000: ab78 38be 45c3 bb3d bcfb f03d 2205 ddbd
00000010: 225d e43d f5b2 f0bd 1017 243e c6e3 323d
00000020: 2367 edbd 100b 8cbd db20 c33d dc09 36be
00000030: 452f 533d 89c5 0abe 9355 38be 5889 683d
00000040: fdf6 69bd 6345 0a3e b9d5 c23b 298f dabd
00000050: fd82 af3d de39 fa3d 317e 6bbd 58ab b5bd
00000060: e670 80bd d43f c73c 9436 31bd 0fcc 29be
00000070: 7104 283c ddd8 4a3e 0e50 74bd c266 39bd
-0.18014781 0.09168104 0.117667645 -0.10791995 0.11150576 -0.11752883 0.16024423 0.043674253
-0.115919374 -0.068380475 0.09527751 -0.17777199 0.05155875 -0.13551916 -0.18001394 0.056771606
-0.057120312 0.13503031 0.005945888 -0.10671837 0.08569906 0.122180685 -0.057493392 -0.08870572
-0.06271534 0.024322428 -0.04326494 -0.16581748 0.010254965 0.1980929 -0.05964666 -0.045264013
