src/pytorch/ctr/202509v1/criteo_ctr_model.onnx (onnx, 19799 bytes, 5 tensors)

network.0.weight f4 [64, 39]
0.09848223 0.0713613 0.07188786 -0.041702278 0.23987979 0.113728754 -0.19993804 -0.10601431
0.020761779 0.018411912 -0.18354884 -0.040339913 -0.07170793 0.16435209 -0.071857035 0.102379024
0.030037334 0.13168289 -0.092690066 -0.037634537 -0.16056925 0.038307067 0.11524791 0.08634962
-0.041734572 -0.015362868 0.1384465 0.07161641 -0.016911775 0.018268235 0.07537824 0.022272417
0.064334966 -0.013565182 0.058226373 0.18694617 0.017824484 0.06307092 -0.06646247 0.095910154
0.08138436 -0.056772783 -0.19827656 -0.03134599 -0.17675363 0.22114784 -0.19931231 -0.09543069
0.018853815 0.14617592 0.12980288 0.041076224 0.13038632 0.04338533 -0.013652684 0.12878259
-0.12225555 -0.010032442 0.117653884 -0.09401841 0.017832056 -0.039311152 -0.0037927818 -0.16672412
-0.058658525 -0.03217112 -0.02481455 0.09315733 -0.022494044 0.13788652 0.16091378 0.035607565
-0.1883451 -0.030150004 0.07154655 0.04362567 -0.043559592 0.027218407 -0.10388227 -0.15353058
-0.06680003 0.121874094 -0.21093185 -0.22330645 0.15936717 0.07024967 -0.1502582 0.03257073
-0.08956834 0.02761307 -0.27121246 0.12685212 0.045012977 0.13455576 0.11282551 0.03582031
0.036398917 0.09618995 0.0064914026 -0.19519792 0.14416055 0.12879689 -0.022155173 -0.114460506
-0.12304264 0.040302638 0.023360627 -0.064664535 0.124062814 -0.031449936 0.07366718 0.039234404
0.15059125 0.07077615 -0.11636995 0.040707838 -0.043523137 -0.15387344 0.040161673 0.010863891
0.12442609 0.12808816 0.14776386 0.04709086 -0.027445579 0.030480854 -0.056615926 0.07469199
-0.054431513 -0.016834592 -0.13559887 0.060081393 0.12089124 -0.08973406 -0.19321448 -0.08707865
-0.054900013 0.034472276 0.09728884 0.12341643 -0.12829177 -0.099444844 0.1339881 0.0033092764
0.06861671 0.095340185 -0.06563222 0.06107289 0.027292335 0.13239613 -0.11069774 0.035022616
0.018950371 0.10997611 -0.039289415 0.04274311 0.09320494 -0.119841784 0.078870796 -0.004897169
0.19266202 0.04064281 -0.14994647 0.18266857 -0.102101974 0.08174173 -0.14390805 0.05914524
0.21697862 -0.101538844 0.07330695 0.0023117515 -0.16668801 0.023496432 -0.09734136 -0.13531646
0.08250287 0.09390469 -0.12508747 0.009843823 0.04142904 -0.09756647 -0.060397036 0.08765904
0.10112811 0.038312238 -0.0857096 0.050165392 0.023517432 -0.16265285 -0.06485007 -0.07692374
-0.13776055 0.0025944014 -0.14364234 -0.036437813 0.029820995 0.13224664 0.14807662 -0.037259694
-0.044028442 0.07567193 0.16712181 0.13171938 -0.17247215 -0.18952855 -0.14314844 0.043777958
-0.035758473 0.11893476 0.14836414 0.040685646 0.06732605 0.014370132 0.069745496 -0.014442896
0.21283594 -0.076860815 -0.13940248 0.09826925 -0.11244396 0.021986837 -0.14157131 0.15806021
0.15564589 -0.04682935 -0.046861365 -0.03065953 -0.08482755 0.02939574 -0.13125765 -0.08803693
-0.09415649 -0.14917363 -0.2034417 0.10985375 0.007867492 0.16768599 0.20337811 0.13279526
-0.23064755 -0.023060936 0.14626178 -0.027543016 -0.22791025 -0.02151395 0.23407131 -0.03788265
0.10547597 -0.07740388 0.08836273 0.09327333 0.049707595 0.0053359508 -0.1214051 0.2643061
00000000: 0db1 c93d e025 923d f139 933d 02d0 2abd
00000010: 0ca3 753e 9fea e83d 8fbc 4cbe 081e d9bd
00000020: 9b14 aa3c 94d4 963c 3af4 3bbe 773b 25bd
00000030: 9bdb 92bd ea4b 283e c829 93bd 18ac d13d
00000040: db10 f63c e1d7 063e 4ad4 bdbd ac26 1abd
00000050: 446c 24be dfe7 1c3d 1907 ec3d 12d8 b03d
00000060: dff1 2abd 8ab4 7bbc ebc4 0d3e a0ab 923d
00000070: 908a 8abc 44a7 953c e85f 9a3d a574 b63c
00000080: 0dc2 833d 7f40 5ebc c77e 6e3d d16e 3f3e
00000090: a704 923c 542b 813d 7a1d 88bd 8b6c c43d
000000a0: d8ac a63d 948a 68bd 0309 4bbe a764 00bd
000000b0: e7fe 34be 9474 623e 8718 4cbe 2a71 c3bd
000000c0: 5173 9a3c 24af 153e 0ceb 043e 8b3f 283d
000000d0: fe83 053e d1b4 313d 82af 5fbc 95df 033e
000000e0: 1e61 fabd 1d5f 24bc 85f4 f03d b98c c0bd
000000f0: 8814 923c bb04 21bd 5290 78bb bab9 2abe
00000100: ec43 70bd ddc5 03bd e247 cbbc 45c9 be3d
00000110: 6e45 b8bc 2032 0d3e 95c6 243e 3dd9 113d
00000120: 8add 40be 24fd f6bc ff86 923d d5b0 323d
00000130: 8b6b 32bd 23f9 de3c 3ac0 d4bd 1f37 1dbe
00000140: 74ce 88bd 2099 f93d 85fe 57be 72aa 64be
00000150: 2631 233e 0fdf 8f3d 49dd 19be e368 053d
00000160: 9b6f b7bd ce34 e23c 5cdc 8abe 86e5 013e
00000170: 875f 383d fcc8 093e 1011 e73d 51b8 123d
00000180: 0817 153d 3dff c43d d5b5 d43b f7e1 47be
00000190: d39e 133e 55e3 033e c47e b5bc 456a eabd
000001a0: c8fd fbbd 6114 253d c95e bf3c d76e 84bd
000001b0: a514 fe3d a6d1 00bd d2de 963d 41b4 203d
000001c0: 9834 1a3e 16f3 903d 5e53 eebd 43bd 263d
000001d0: 5145 32bd 0091 1dbe 9180 243d 76fe 313c
000001e0: 1bd3 fe3d 8b29 033e 694f 173e 58e2 403d
000001f0: 8dd5 e0bc fcb2 f93c 1ae6 67bd 1df8 983d
00000200: 94f3 5ebd b3e8 89bc 6eda 0abe e817 763d
00000210: d495 f73d 7ec6 b7bd 04da 45be 4b56 b2bd
00000220: d6de 60bd cd32 0d3d 5f3f c73d c1c1 fc3d
00000230: eb5e 03be bda9 cbbd 2d34 093e 72e0 583b
00000240: eb86 8c3d b741 c33d 2f6a 86bd 9127 7a3d
00000250: 2d94 df3c da92 073e 7fb5 e2bd e073 0f3d
00000260: cf3d 9b3c 283b e13d f0ed 20bd 6613 2f3d
00000270: 3be2 be3d 9c6f f5bd 0387 a13d 6e78 a0bb
00000280: 3149 453e 1379 263d 918b 19be 780d 3b3e
00000290: d71a d1bd 3568 a73d a25c 13be 4742 723d
000002a0: a52f 5e3e 99f3 cfbd f421 963d c180 173b
000002b0: 43b0 2abe 977b c03c e85a c7bd 6690 0abe
000002c0: 44f7 a83d 1a51 c03d ee16 00be fc47 213c
000002d0: 7fb1 293d eed0 c7bd e262 77bd 9586 b33d
000002e0: 411c cf3d 4bed 1c3d 8488 afbd 3a7a 4d3d
000002f0: a1a7 c03c 788e 26be 1dd0 84bd 328a 9dbd
00000300: 1a11 0dbe d506 2a3b fa16 13be d13f 15bd
00000310: 294b f43c aa6b 073e 66a1 173e 9f9d 18bd
00000320: 2b57 34bd e3f9 9a3d fb21 2b3e 72e1 063e
00000330: 8a9c 30be c613 42be 8195 12be 8450 333d
00000340: 7a77 12bd 1194 f33d c5ec 173e fea5 263d
00000350: 3de2 893d b470 6b3c bad6 8e3d e5a1 6cbc
00000360: aaf1 593e 3469 9dbd 86bf 0ebe 6341 c93d
00000370: 0549 e6bd bd1d b43c 12f8 10be 89da 213e
00000380: a361 1f3e 22d0 3fbd b4f1 3fbd b229 fbbc
00000390: 11ba adbd 56cf f03c 6868 06be b54c b4bd
000003a0: 1ed5 c0bd f9c0 18be 0553 50be 01fb e03d
000003b0: a7e6 003c e0b5 2b3e 5a42 503e 7bfb 073e
000003c0: df2e 6cbe 4aea bcbc a6c5 153e e4a1 e1bc
000003d0: 4e61 69be 063e b0bc 64b0 6f3e d62a 1bbd
000003e0: c903 d83d ed85 9ebd 85f7 b43d 1606 bf3d
000003f0: 319a 4b3d 33d9 ae3b 3da3 f8bd 2153 873e

network.0.bias f4 [64]
-0.06271641 -0.058810115 0.11442291 0.03763702 -0.050660066 0.114125356 0.11785644 0.11580897
0.14787778 0.027561985 0.13810007 0.032039765 0.10554804 -0.13768941 -0.057975277 0.024638403
-0.16359173 0.03286386 0.071435735 0.17143686 -0.016200764 -0.018415116 -0.040099364 0.13493615
-0.07050219 0.049152467 0.0079039335 0.1265743 -0.0035549698 -0.018419672 0.07881549 0.070657
0.009006834 -0.08879679 0.11575956 0.047211565 -0.0014542541 0.016191069 0.10235584 -0.029272947
0.11094928 0.12672876 -0.0446507 -0.104746476 0.08540075 0.034495447 -0.045175597 -0.12614149
0.055592645 -0.0067176684 -0.024839506 -0.056423478 -0.013344102 -0.12205583 0.009029678 0.11255619
-0.10520222 0.09526199 -0.11863827 0.044825476 0.024985518 0.1666525 -0.064905524 -0.13317578
00000000: 7671 80bd e0e2 70bd 8f56 ea3d 4729 1a3d
00000010: ee80 4fbd 8eba e93d b85e f13d 412d ed3d
00000020: 466d 173e acc9 e13c 1b6a 0d3e 213c 033d
00000030: 9229 d83d 74fe 0cbe 7c77 6dbd 7ad6 c93c
00000040: 9784 27be 419c 063d e64c 923d 258d 2f3e
00000050: 77b7 84bc 4cdb 96bc 3b3f 24bd b42c 0a3e
00000060: 7463 90bd 1954 493d 807f 013c b19c 013e
00000070: 7ffa 68bb dae4 96bc 046a a13d 9eb4 903d
00000080: 6691 133c 17db b5bd 5913 ed3d ea60 413d
00000090: ac9c beba 22a3 843c f09f d13d d2cd efbc
000000a0: 6039 e33d 2fc5 013e a7e3 36bd 5285 d6bd
000000b0: 97e6 ae3d 194b 0d3d 0c0a 39bd 3c2b 01be
000000c0: 1db5 633d e31f dcbb 387c cbbc 4e1c 67bd
000000d0: 38a1 5abc 68f8 f9bd 37f1 133c dc83 e63d
000000e0: 4374 d7bd b818 c33d 9ff8 f2bd eb9a 373d
000000f0: 6eae cc3c f4a6 2a3e 30ed 84bd 3b5f 08be

network.3.weight f4 [32, 64]
-0.12039782 0.052593276 -0.13797759 -0.049832627 -0.05177846 0.105375364 -0.068830386 -0.021852668
-0.05847198 -0.05892582 -0.066004455 -0.05101697 -0.028181886 -0.0019696949 -0.05000601 -0.10140802
0.072763324 0.10993507 -0.10141994 0.10080228 -0.113947004 -0.11726885 -0.0008154945 0.007900165
0.024307126 -0.10862306 -0.11016166 -0.004136455 -0.10605615 -0.08523395 -0.07291252 -0.023854628
0.055315778 0.016846657 -0.016319633 -0.011091187 3.602163e-05 0.062838644 -0.11337933 0.06704264
0.040629927 0.06728017 0.09415602 -0.032465585 0.103802174 0.046676356 -0.08056106 0.046566922
-0.016000766 -0.067912206 -0.09637689 0.03408676 0.05205742 0.11965968 -0.10860949 0.000863467
-0.06469411 0.06236009 -0.043049313 -0.10447247 0.046200316 0.09462247 -0.11273289 -0.10417926
0.11940448 -0.006205266 0.041597627 0.013449117 -0.022789007 -0.090754926 0.088714115 0.07541085
0.0010902171 0.08430507 0.10086144 0.0615267 -0.040823698 -0.012318924 0.009190594 -0.03436115
-0.0038949815 -0.057016667 -0.03930373 -0.0338526 0.11525025 0.01891319 0.049581345 0.022822276
-0.02645714 0.060975965 0.0960761 0.08748226 -0.0026873492 0.00716196 -0.002168466 0.004782613
0.12314972 0.103220016 -0.0016370517 -0.017371295 -0.068000905 0.06526441 0.04301171 0.0033864572
0.108401656 0.0045687105 0.046079997 0.085304014 -0.06733412 -0.037054643 0.07048363 -0.063872196
-0.003060015 0.07776282 0.06570312 -0.19124351 -0.104275785 -0.08547862 0.11095086 0.07412052
0.086295426 -0.052502073 0.09263701 -0.06893506 0.055590615 0.1523179 -0.10788889 0.01296246
0.07555551 0.09714045 -0.11501091 0.12708598 -0.058468685 -0.03707117 0.06371652 0.07547925
-0.051332727 0.027988598 0.07279589 0.082960464 0.12115039 0.1043719 0.01782709 0.010749072
-0.051636145 0.08041937 -0.13583213 -0.09589566 -0.025409397 0.04921626 0.055145107 0.03148453
0.07847924 0.10055391 0.08946903 0.061215136 0.117450655 0.016727867 -0.06900967 0.05331322
-0.04625511 0.021263491 0.11181795 -0.031006597 0.08601222 0.15076308 0.005898252 -0.011963922
0.078324825 0.07096309 0.11782647 -0.0702843 -0.038410746 0.02242929 0.02704723 -0.07179149
-0.054705817 -0.09887026 0.029875504 -0.02215315 0.00056813407 -0.009895132 -0.0050122174 0.068476774
0.08199071 0.055995505 -0.026649602 -0.09497156 0.042231273 0.15275651 -0.03937047 -0.06990507
0.017280687 -0.0012242157 0.10308143 -0.0067122704 0.044676073 0.05286524 -0.081672035 0.061823044
-0.05600441 -0.0719129 0.038073972 -0.018457338 -0.043625504 0.08325352 -0.10170884 -0.01207299
0.07026797 -0.12025471 0.0761665 -0.04016759 -0.108288616 -0.14271456 0.07207004 -0.057176083
-0.02547535 -0.0125654265 -0.055139292 -0.044357385 -0.056310985 -0.04157922 0.075128056 0.039189868
-0.058336284 0.010834444 0.103838794 0.041641004 0.07987811 0.080109976 -0.11738158 -0.14587086
0.03851796 -0.07356804 0.100974284 -0.10361695 -0.017764974 -0.02007727 0.0317467 0.08412815
-0.014508703 0.07866792 0.09107922 0.046811283 -0.013670776 0.112178594 -0.058354225 0.07083895
0.070847 -0.078050934 0.053752106 -0.09777923 -0.04375736 -0.05618592 -0.01097576 -0.019895086
00000000: 2293 f6bd 0c6c 573d ff49 0dbe 4c1d 4cbd
00000010: a715 54bd 0acf d73d f2f6 8cbd 5e04 b3bc
00000020: 5180 6fbd 335c 71bd 582d 87bd 2cf7 50bd
00000030: b3dd e6bc ff15 01bb 1ad3 4cbd 02af cfbd
00000040: f004 953d a325 e13d 42b5 cfbd 6d71 ce3d
00000050: 0c5d e9bd a72a f0bd e9c6 55ba b26f 013c
00000060: bd1f c73c c475 debd 709c e1bd 198b 87bb
00000070: f733 d9bd 238f aebd 2953 95bd c86a c3bc
00000080: cc92 623d 0002 8a3c c0b0 85bc cfb7 35bc
00000090: ee15 1738 8cb1 803d 6c33 e8bd a74d 893d
000000a0: 916b 263d 30ca 893d dfd4 c03d a2fa 04bd
000000b0: 3c96 d43d b52f 3f3d 32fd a4bd f5bc 3e3d
000000c0: 0a14 83bc 8e15 8bbd 3f61 c5bd 8f9e 0b3d
000000d0: 293a 553d 2210 f53d a76e debd 4a5a 623a
000000e0: 587e 84bd 4b6d 7f3d 7a54 30bd aaf5 d5bd
000000f0: 8b3c 3d3d 6dc9 c13d 80e0 e6bd f05b d5bd
00000100: 568a f43d 8b55 cbbb 4662 2a3d af59 5c3c
00000110: 03b0 babc b8dd b9bd bfaf b53d 0171 9a3d
00000120: 9ee5 8e3a 23a8 ac3d 7190 ce3d 6c03 7c3d
00000130: c036 27bd 50d5 49bc 2594 163c 47be 0cbd
00000140: f242 7fbb 4f8a 69bd f3fc 20bd 06a9 0abd
00000150: 5308 ec3d d6ef 9a3c cf15 4b3d c8f5 ba3c
00000160: a5bc d8bc efc1 793d 8cc3 c43d e629 b33d
00000170: 3d1e 30bb e0ae ea3b d31c 0ebb 77b7 9c3b
00000180: ec35 fc3d 0465 d33d 5792 d6ba 3f4e 8ebc
00000190: 0f44 8bbd 59a9 853d 0c2d 303d 53ef 5d3b
000001a0: b001 de3d 1fb5 953b 61be 3c3d dfb3 ae3d
000001b0: 79e6 89bd 9cc6 17bd b959 903d 6dcf 82bd
000001c0: 888a 48bb 1d42 9f3d 5b8f 863d 57d5 43be
000001d0: 8b8e d5bd 6a0f afbd 343a e33d 80cc 973d
000001e0: a8bb b03d 6a0c 57bd 79b8 bd3d d32d 8dbd
000001f0: fcb2 633d 39f9 1b3e daf4 dcbd 7f60 543c
00000200: d9bc 9a3d 92f1 c63d d78a ebbd d422 023e
00000210: dc7c 6fbd f0d7 17bd cf7d 823d dd94 9a3d
00000220: 4442 52bd 5848 e53c 0316 953d 2de7 a93d
00000230: b21d f83d efc0 d53d 1e0a 923c e01c 303c
00000240: 6c80 53bd e9b2 a43d 9417 0bbe f264 c4bd
00000250: 5e27 d0bc fd96 493d d6df 613d ecf5 003d
00000260: b9b9 a03d 35ef cd3d 8a3b b73d b9bc 7a3d
00000270: f889 f03d e108 893c f154 8dbd f75e 5a3d
00000280: 0076 3dbd c630 ae3c cf00 e53d 8c01 febc
00000290: 2d27 b03d a361 1a3e 2046 c13b 5304 44bc
000002a0: c468 a03d 1955 913d 014f f13d 37f1 8fbd
000002b0: 9654 1dbd a1bd b73c 2792 dd3c 6b07 93bd
000002c0: 3513 60bd 7e7c cabd 79bd f43c 867a b5bc
000002d0: d5ee 143a 311f 22bc 873d a4bb 8d3d 8c3d
000002e0: bfea a73d 8b5b 653d 4450 dabc 7380 c2bd
000002f0: b3fa 2c3d 346c 1c3e ee42 21bd 642a 8fbd
00000300: 3a90 8d3c dd75 a0ba 5b1c d33d 9bf2 dbbb
00000310: 42fe 363d 3989 583d ab43 a7bd 293a 7d3d
00000320: e164 65bd 1247 93bd 74f3 1b3d d833 97bc
00000330: a8b0 32bd d280 aa3d b94c d0bd cacd 45bc
00000340: a7e8 8f3d 1a48 f6bd 2ffd 9b3d c586 24bd
00000350: 6cc6 ddbd c423 12be 7599 933d 7831 6abd
00000360: aeb1 d0bc 38df 4dbc bdd9 61bd 17b0 35bd
00000370: 59a6 66bd f94e 2abd bddc 993d 8e85 203d
00000380: 07f2 6ebd f482 313c 6fa9 d43d c28f 2a3d
00000390: 2297 a33d b310 a43d c165 f0bd 2c5f 15be
000003a0: 02c5 1d3d d7aa 96bd 9bcb ce3d 2035 d4bd
000003b0: da87 91bc 1679 a4bc d408 023d 614b ac3d
000003c0: e9b5 6dbc a51c a13d be87 ba3d 30bd 3f3d
000003d0: 64fb 5fbc e4bd e53d d704 6fbd 0314 913d
000003e0: 3b18 913d 2bd9 9fbd 2b2b 5c3d 7a40 c8bd
000003f0: eb3a 33bd 3523 66bd add3 33bc 05fb a2bc

network.3.bias f4 [32]
-0.0793236 0.08805088 0.050175034 0.009086757 -0.054499097 -0.14154868 -0.10302587 0.071121484
0.012638738 -0.010189121 0.07515948 0.13756564 0.091045216 -0.076231875 0.039354354 0.055911977
-0.09366853 0.13327698 -0.02689714 0.118865065 -0.104069784 0.06793806 -0.06333057 -0.039187226
0.022384262 0.043776684 0.14188486 0.16181897 -0.028571244 -0.021474143 0.013914602 -0.05323269
00000000: 6974 a2bd 0554 b43d 5684 4d3d 9fe0 143c
00000010: 723a 5fbd 23f2 10be 3aff d2bd 24a8 913d
00000020: b612 4f3c 45f0 26bc 37ed 993d 02de 0c3e
00000030: ea75 ba3d 751f 9cbd 0832 213d f503 653d
00000040: 49d5 bfbd c379 083e 6457 dcbc 876f f33d
00000050: 8a22 d5bd 1c23 8b3d 75b3 81bd c982 20bd
00000060: 335f b73c 2e4f 333d 444a 113e dfb3 253e
00000070: 3e0e eabc 8bea afbc 12fa 633c 850a 5abd

network.6.weight f4 [1, 32]
0.16274413 -0.08944358 -0.037496828 0.15777697 -0.10388053 0.121647835 0.20825832 -0.0765987
-0.15492661 0.015197528 0.08354526 -0.17812687 -0.10089037 -0.14906469 -0.04527845 -0.13176368
0.12266373 -0.075457156 -0.05623915 -0.14133403 0.1836714 -0.048284706 0.101895586 -0.1522786
0.07684441 -0.2026469 -0.038094066 -0.086428866 0.14970006 0.0814715 -0.09334238 0.06219857
00000000: 66a6 263e 322e b7bd 4696 19bd 4990 213e
00000010: 51bf d4bd 8022 f93d ab41 553e c7df 9cbd
00000020: 15a5 1ebe 0dff 783c c719 ab3d e466 36be
00000030: 9c9f cebd 6aa4 18be e575 39bd 0fed 06be
00000040: 1f37 fb3d 4889 9abd 065b 66bd deb9 10be
00000050: 5b14 3c3e 2fc6 45bd a2ae d03d ecee 1bbe
00000060: 9a60 9d3d ab82 4fbe 8608 1cbd 9e01 b1bd
00000070: f94a 193e 88da a63d 4a2a bfbd eec3 7e3d
