src/pytorch/criteo_ctr_model.onnx (onnx, 19799 bytes, 5 tensors)

network.0.weight f4 [64, 39]
000000 7c 84 11 bb bf 68 dd 38 57 6f 05 3d d5 85 17 bd
       -0.002220421 0.00010557612 0.032576885 -0.036992867
000010 90 7b 9d 3d 87 b4 04 bc 7e 66 f8 3c 4c 2c e8 bd
       0.07689583 -0.008099682 0.03032231 -0.11336574
000020 e6 8a 1f bd dd 3f a6 3d 58 47 d4 3d 37 db 38 bd
       -0.038950823 0.0811765 0.1036517 -0.045130935
000030 5c 91 42 ba 3e 6f 8f bc d3 1d a3 bd 71 91 d9 bd
       -0.0007422173 -0.0175091 -0.07964673 -0.10623444
000040 8f f5 d1 ba 2f b2 fe 3a 32 0c a9 3d aa ad 42 3d
       -0.0016018617 0.0019431765 0.08254279 0.0475289
000050 d6 b0 b1 ba ec 3a 48 bd fb 4a 2d bd 08 16 6a 3a
       -0.001355673 -0.048884317 -0.042307835 0.00089296745
000060 51 1f 6a b9 e7 28 99 bd cf 32 d3 3d 80 85 e4 bd
       -0.00022327645 -0.07478505 0.10312425 -0.111582756
000070 31 e2 e2 3c 1b 1a c7 3a 29 9c df 3d aa 31 d2 3b
       0.027695747 0.0015190275 0.10918457 0.006414612
000080 16 6c 04 3d 79 0f 89 bd 4b 5d 11 3b 97 48 85 3d
       0.03232964 -0.06692404 0.002218085 0.06507986
000090 77 29 ae 3d 71 20 58 bd 40 2c 12 bb ec af 41 3c
       0.085040025 -0.052765314 -0.0022304207 0.011821728
0000a0 f8 56 1f bd 23 77 76 bd 20 7b 7a 39 3a 1b 78 3d
       -0.0389013 -0.06017221 0.00023887726 0.06057284
0000b0 2e 02 23 bc 14 04 b1 bd 52 81 ea 3d a8 3a 12 bb
       -0.00994925 -0.08643356 0.11450447 -0.0022312794
0000c0 4c f5 5b bd 57 51 8b 3d 51 fa c1 3d d4 a2 ae bc
       -0.05370073 0.06802624 0.09471572 -0.021317877
0000d0 be b9 be 3d 73 bc c1 3d 80 31 78 b7 cd ba d7 bc
       0.09312771 0.09459772 -1.4793477e-05 -0.02633419
0000e0 19 be a8 3c 2f 3b cf 3d da b5 f1 3c 02 75 ca 3d
       0.020598458 0.1011871 0.029505659 0.09885599
0000f0 1a 2f a6 bb cb af 58 bc b4 69 65 bd 05 05 f0 bd
       -0.005071533 -0.013225506 -0.05600901 -0.117197074
000100 c2 43 03 bd 08 7e a0 bd f4 e2 9b bd b8 92 b8 3d
       -0.03204704 -0.078365386 -0.07611647 0.090123594
000110 da e7 08 3b 8a a4 a5 b9 ec a4 46 36 7e 81 28 bc
       0.0020890147 -0.00031593844 2.9600296e-06 -0.01028478
000120 e9 87 d9 bd cb 11 2b 3d 5c 13 00 bc 64 29 60 bd
       -0.10621626 0.041765016 -0.007817116 -0.054726973
000130 14 f1 81 3c 16 60 d6 3a eb 4a 39 b9 c3 b1 34 bd
       0.015862025 0.001635554 -0.00017670884 -0.04411484
000140 f5 1d 67 3d ad 4c c2 3c 06 6c ac 3a 26 59 2d 3d
       0.056425054 0.023718202 0.0013154752 0.042321347
000150 eb 77 a8 3d 9c 5f ad 3d b4 70 92 bb 17 ce 2c ba
       0.082259975 0.08465502 -0.0044690017 -0.0006591989
000160 a4 a1 df bb 71 f8 ee 3d e1 f8 8d bc 4a ba 38 3a
       -0.006824689 0.1166848 -0.017330589 0.0007046802
000170 14 22 8b 37 60 92 36 b9 80 0d e1 3a 60 1f 8a bc
       1.658596e-05 -0.00017411401 0.0017170161 -0.016860664
000180 a9 a3 44 bd 99 ca c7 3c 43 3a 80 3c ca bb 84 bc
       -0.04800764 0.024388598 0.015652781 -0.016202826
000190 b6 fe 52 bc d8 05 45 3c 9d 5e 43 3d ea c6 c3 3c
       -0.012878111 0.012025319 0.047697652 0.02389856
0001a0 de 09 cd bd ac d8 c3 ba 84 20 b6 bd e1 c3 b9 3d
       -0.10011648 -0.0014941893 -0.088929206 0.09070564
0001b0 e9 8b d2 bd 84 d4 f7 ba 18 c6 7b 38 9b 01 de bd
       -0.10280592 -0.0018907939 6.0027553e-05 -0.1084015
0001c0 57 00 ba 38 20 88 45 3c 2e 00 c4 3d bd 33 ef bd
       8.8692344e-05 0.0120563805 0.09570347 -0.1167979
0001d0 7f ee 93 3c e4 04 ea 3d 1c d6 d5 3d f8 0e 3b 3d
       0.01805806 0.11426714 0.10441229 0.045668572
0001e0 ed b1 93 3d c8 b5 16 38 60 f9 fc 3a 9b 5a cc bd
       0.07211671 3.5932084e-05 0.0019300394 -0.09978219
0001f0 b5 c7 9a 3a f2 d2 48 ba 0a c5 a3 bd 51 62 e2 bc
       0.0011808785 -0.0007660828 -0.079965666 -0.027634772
000200 d2 c2 99 3a 6c d2 95 bd a3 93 90 3d 4d 92 8d bd
       0.0011731035 -0.073155254 0.070594095 -0.0691267
000210 16 b3 93 ba 14 79 30 ba 89 cf a3 bd a9 c1 d1 ba
       -0.0011268582 -0.0006731909 -0.079985686 -0.001600315
000220 96 e3 95 bd 34 45 58 bd e9 6c de 3d 94 1b 7d 3d
       -0.07318799 -0.052800372 0.10860617 0.06179388
000230 7f 7f c8 3c 0b de 5d bd e0 3d 84 bd 4b 4f 07 3d
       0.024474857 -0.054166835 -0.06457114 0.033034604
000240 8a e5 ad bd cf 65 b7 3d 76 d2 30 bd de e7 a2 bd
       -0.08491047 0.08954965 -0.04316946 -0.079543814
000250 6f e3 c4 bd 3a ab f8 3c 43 1b 26 3a ae 28 41 bd
       -0.09613692 0.030355085 0.000633646 -0.047157936
000260 01 6f 9f bd 87 38 86 bd 24 d7 e7 3d 07 02 69 bd
       -0.07784844 -0.065537505 0.11320332 -0.0568867
000270 d6 ca 1b 3e ce 63 d0 3d 2b 0d ea 3d cc e7 83 3d
       0.15214095 0.10175286 0.11428293 0.06440696
000280 c6 d7 03 3e 18 db 26 be 4e 9b d3 bd d8 00 b1 3d
       0.1287528 -0.16294515 -0.103323564 0.08642739
000290 14 8f 0d be 7d 6a 0a bd ff 97 cc 3c 76 1d c9 3d
       -0.13824111 -0.03379296 0.024974821 0.09820072
0002a0 bd 83 84 3d b9 56 f5 bd 7b f0 34 3d be b1 38 bc
       0.064704396 -0.11979432 0.044174653 -0.011272846
0002b0 08 8b e1 bd 9f 1e 13 be d6 97 18 3b 1c 11 cd bd
       -0.11012846 -0.1436715 0.002328386 -0.10013029
0002c0 01 f4 eb bd f8 f3 09 be d2 cb 6b bc 72 02 f0 3d
       -0.115211494 -0.13471973 -0.014391856 0.117192164
0002d0 3d d6 5b 3c b9 49 09 be a6 3e 02 3e 34 f7 dd bd
       0.013417778 -0.13407029 0.12719211 -0.10838166
0002e0 dd eb af 3d 61 5d ed 3d 96 e9 66 3d b6 cf bb bd
       0.08589909 0.11590076 0.05637511 -0.09170477
0002f0 bf 31 14 3d f8 c7 9c 3d 7b 78 37 3d bc 05 98 3d
       0.036180254 0.076553285 0.044792634 0.07422969
000300 97 3d d5 bd 25 11 21 3e f2 fc cf 3d 8c ed aa bc
       -0.10412138 0.15729196 0.10155667 -0.020865224
000310 75 42 d0 3d 94 d0 15 bc b1 62 54 3c d6 d8 43 bd
       0.10168926 -0.009143967 0.012962983 -0.047814213
000320 61 03 96 bd 3a c5 fe 3d 28 07 c8 b8 49 08 d5 3c
       -0.07324863 0.12439962 -9.538076e-05 0.026004927
000330 32 37 5c 3d ef b3 a6 3c 7a f6 6f bb 90 95 f3 3c
       0.053763576 0.02034947 -0.0036615417 0.029734403
000340 7d 80 0b 3d 30 92 84 3d 4e f2 98 3a d0 da d9 3d
       0.034058083 0.064731956 0.0011668892 0.10637438
000350 30 c8 8a bc ae 09 e7 bd c8 8c 1e 3c bf d1 87 3d
       -0.01694116 -0.11281143 0.00967712 0.06631803
000360 15 af 7d 3c a3 7f 83 3d 51 9d 53 bd 93 7f 5e bc
       0.015483637 0.06420829 -0.0516637 -0.013580221
000370 75 c0 3d 3c 6d bb 01 3e 70 fa b7 ba 12 bc 7e bc
       0.01158153 0.12669154 -0.0014036428 -0.015547769
000380 3b 9f 4d 3d c5 49 90 3c a4 4d bb bd df 5b 16 bd
       0.050200682 0.017613301 -0.09145668 -0.03670871
000390 61 0f 98 bb 57 62 03 3e 2d 40 72 3d 06 fb 2b bd
       -0.004640505 0.12830482 0.059143234 -0.04198744
0003a0 fd 38 f5 3d 63 2d c2 bd 88 be 19 3d 29 08 22 bd
       0.1197376 -0.09481313 0.03753522 -0.039558563
0003b0 87 09 cf bd e6 6b 1f bd 1c 2b b2 3b 87 6a cc bd
       -0.10109239 -0.03892126 0.005437268 -0.09981256
0003c0 13 33 bd bd 98 d5 b4 3d ad 91 9a 3d e9 95 8f bb
       -0.09238257 0.08829802 0.07547317 -0.0043818844
0003d0 6c 78 94 3d 06 20 32 bd 4f 32 f8 bc 41 4f 94 3d
       0.07249531 -0.04348757 -0.030297427 0.07241679
0003e0 d1 bb e1 3d 92 9e e2 bd ea 8c 70 bd 36 e1 8a 3b
       0.11022151 -0.11065401 -0.058728136 0.004238273
0003f0 9f 97 74 3d 05 7a 61 3d 2f d1 14 bb f4 d9 ee bd
       0.05971491 0.055048008 -0.002270769 -0.11662665

network.0.bias f4 [64]
000000 28 65 42 3a 25 8f 9d bd 9a c6 85 3d d0 5c 87 3d
       0.0007415586 -0.07693318 0.06532021 0.066094995
000010 a2 65 a2 bd 48 95 8d bc fc a0 9c bd 49 e1 ab bc
       -0.07929541 -0.017283097 -0.07647893 -0.020981448
000020 16 c1 fc bd 10 b3 ed 3d db 0e 68 bd 0c 6e e6 3d
       -0.12341516 0.11606419 -0.056654792 0.112514585
000030 1d 8c b9 bc 0e 0d cc 3d a1 25 b3 bb b5 cc 49 3d
       -0.022649819 0.099634275 -0.005467132 0.04926749
000040 ab d5 dc bd 8c e4 f3 3d 61 04 6f 3d 16 f6 c4 3c
       -0.107829414 0.11908826 0.058353785 0.024043124
000050 66 49 3b bd ef cf ef 3d fb 90 ef bd 18 7f 0f 3e
       -0.045724295 0.11709582 -0.11697575 0.14013326
000060 4b 60 15 be 1e 10 97 bd e6 66 ba 3a 27 10 2a bd
       -0.14587514 -0.07376121 0.001422134 -0.04151931
000070 6a eb 52 3c ba 2d 8c bd 35 2d 2a 3d 19 f6 92 3d
       0.01287351 -0.06844659 0.04154702 0.07175846
000080 c9 da e4 bd 49 4b 40 bd e3 b7 31 ba 99 b4 38 bc
       -0.111745425 -0.046946798 -0.00067794154 -0.011273527
000090 68 2d 3d bd 8f 33 4a bd 55 e6 06 be 3f 44 cc bb
       -0.04618588 -0.049365576 -0.13173802 -0.0062337215
0000a0 52 c9 a3 bd 60 fc a8 bd 41 28 fa 3b 59 e1 e5 bd
       -0.07997383 -0.08251262 0.007634193 -0.11224622
0000b0 c1 3d c8 3c 75 22 f9 3d 0c ac b8 3d fb 54 3b bd
       0.024443509 0.12164775 0.0901719 -0.04573534
0000c0 43 73 65 3d c6 db 70 3d 40 ab 5f bb a8 bf f1 3d
       0.056018125 0.058803342 -0.0034129173 0.11804134
0000d0 30 f7 d9 3c db 65 76 3d cd 75 14 3e df a5 d2 ba
       0.026607126 0.06015573 0.14498062 -0.0016071162
0000e0 d8 9a 72 3c e4 fd d5 3d 4f 8a 19 be b4 c4 9a 3b
       0.014807425 0.104488164 -0.14994167 0.004723156
0000f0 3d 04 f7 3d db a2 ad 3d fc ce ba bd 43 3c cf 3d
       0.12061355 0.08478328 -0.091215104 0.10118916

network.3.weight f4 [32, 64]
000000 23 17 8e 3d 0d f5 af 3d 4b 06 98 3c cc b9 8b 3b
       0.06938007 0.085916616 0.018557688 0.004264092
000010 5e 37 18 bc 32 34 d8 bb 33 1b ed bb 32 2f e9 3d
       -0.009290544 -0.006598019 -0.0072359084 0.11385955
000020 de 3d e3 3d 4c 3d f1 3c c4 65 6b bd ca 62 f3 b7
       0.110957846 0.029448174 -0.0574701 -2.901386e-05
000030 d8 7e ca 37 b7 74 89 bd 0f 5d 2e ba 6d 86 05 3b
       2.4139343e-05 -0.06711715 -0.000665144 0.0020374313
000040 51 b4 37 3d 2a b1 95 3d 72 46 c2 3d 90 ea b5 b7
       0.044849698 0.07309182 0.094860926 -2.1686108e-05
000050 6c 19 7d bc 24 66 97 3d eb 11 18 bd e6 86 cf 3d
       -0.015447956 0.07392529 -0.037126463 0.10133152
000060 f2 40 e8 bd 88 61 ec 3c 07 a9 3e bd 2f 9d 99 3c
       -0.11340512 0.0288551 -0.046547916 0.018751709
000070 80 e6 3a b9 d3 72 36 3d a4 2e de bc 4a e8 30 bd
       -0.0001782421 0.0445431 -0.02712185 -0.043190278
000080 f9 7d 0f bd 98 bd 64 bc 9e 67 74 39 38 a2 a0 3b
       -0.035032246 -0.013961218 0.00023308254 0.0049021505
000090 44 8f 4b 39 22 25 02 bd 08 41 7c bc 79 33 51 bd
       0.00019412959 -0.031773694 -0.015396364 -0.05107448
0000a0 00 ec 01 be 3f f2 1d 3c 7d 03 83 bd 57 71 4d 3b
       -0.12687683 0.0096402755 -0.0639715 0.0031348073
0000b0 8f 43 cb bc 8e 44 8d bd a1 12 57 bd d4 73 0e bb
       -0.024812488 -0.068978414 -0.052508 -0.002173652
0000c0 00 5c b7 bb 58 1f da bd b2 21 cc bc 68 63 7a 3c
       -0.005595684 -0.106505096 -0.02491841 0.015282489
0000d0 94 aa b6 bc 7f a8 a9 3d 44 bc a8 bc 54 30 42 bd
       -0.022298135 0.08284091 -0.020597585 -0.04740937
0000e0 a8 d6 39 3d 5a ae 2a 3d 2b 63 be 3d b6 43 a5 3d
       0.045370728 0.04167018 0.092962585 0.080695555
0000f0 10 14 26 bd 7c ab a3 3d b9 42 9d 3c 8c a2 68 b6
       -0.040546477 0.079916924 0.019196855 -3.4665309e-06
000100 d0 f6 3f 3c 63 0f 8f 3d cd 37 be 3c 30 3f 8c ba
       0.0117165595 0.06985357 0.023219967 -0.0010699984
000110 fa 14 82 3d 1b 55 e7 3c 01 73 5b 3d 0e 60 ee 3c
       0.06351657 0.028238824 0.053576473 0.029098537
000120 d5 7d 07 bc ef f6 34 bd 6e b5 e9 bd 6a 4d 95 3c
       -0.008269747 -0.044180807 -0.11411558 0.01822539
000130 92 27 9e bd 7f 1c 58 3c 39 d8 81 bc dd cf 8f 3a
       -0.07722391 0.013190388 -0.015850173 0.0010971982
000140 a4 46 26 bd 52 3e 3b 3d cb 57 00 be 06 ff 0f 3a
       -0.040594712 0.04571373 -0.1253349 0.00054930185
000150 bc 20 1c ba 10 60 e9 3a 44 93 9e bd fe 9a 55 bd
       -0.00059558055 0.0017805118 -0.077429324 -0.052149765
000160 78 8d 4e bd e7 f9 13 bd 4c 4c 8e ba f3 5b 73 bc
       -0.050427884 -0.036126997 -0.0010856478 -0.014853465
000170 d1 be 71 ba 03 fb 12 3c 70 bf fa 3a 6b 2f 8c bd
       -0.0009221854 0.008970979 0.0019130539 -0.06844982
000180 7e d0 15 bd 52 2a bc bd 5e 02 57 bd 3e e6 f8 3d
       -0.036575787 -0.091877595 -0.052492492 0.1215329
000190 3f 22 bf bc b3 41 f5 3c 7c 12 11 3c 7a d4 82 bd
       -0.02333176 0.029938554 0.008854505 -0.06388183
0001a0 aa ef 95 bb d3 34 ac bd e9 ab e6 3c 4c 57 62 3d
       -0.0045756893 -0.08408513 0.028158145 0.055259034
0001b0 13 ae 74 3b 3c 9e 15 bc a5 26 83 bc f4 e4 f7 ba
       0.0037335202 -0.009131964 -0.016009638 -0.0018912838
0001c0 2b 3c 22 bd 3d 9a ba 3d 17 01 1b 3a 6f 1a 07 bc
       -0.039608162 0.0911145 0.0005912943 -0.008246048
0001d0 c8 df b3 3b 2a 95 9a bd 2e 8d f7 3d ba d5 79 3a
       0.0054893233 -0.07547982 0.12087475 0.0009530444
0001e0 74 52 d8 ba 0a 14 80 bd d3 da bf 3d 95 38 1a bb
       -0.0016504065 -0.06253822 0.09367909 -0.002353226
0001f0 dc df e6 3c fb 57 82 3d c0 ba ab 39 cc 34 1e ba
       0.028182916 0.06364437 0.000327548 -0.0006035089
000200 ff 50 c6 bb a6 4e 85 b8 98 b3 b7 39 0d df ca b9
       -0.006052136 -6.3565836e-05 0.00035038288 -0.00038694628
000210 3d 50 62 3d 43 5f 26 3d a2 cf 30 3d 9c d3 42 bb
       0.055252302 0.040618192 0.043166764 -0.002972818
000220 7b a5 a3 bd 45 7a d4 39 2f 01 86 3d 77 00 43 ba
       -0.07990547 0.0004052689 0.065431945 -0.0007438729
000230 24 24 e9 3a 30 23 d8 bd dc d0 11 ba 10 75 07 bb
       0.001778726 -0.105535865 -0.00055624335 -0.002066914
000240 dc f6 2c 3c 6b f4 cd bc c0 e0 4c bd 7b d8 11 bb
       0.010556903 -0.025140962 -0.050019026 -0.0022254277
000250 56 40 70 bc b1 46 09 bd c9 9f a7 3d 55 c2 79 3d
       -0.014663776 -0.033514682 0.081847735 0.060976345
000260 4c 24 ff bd 38 62 15 3c 3a 2c 75 39 cb 1e 47 3d
       -0.12458095 0.009117655 0.00023381496 0.04861335
000270 9a 21 41 ba e5 f7 48 bd 76 51 61 3d 20 bd 8e 3d
       -0.0007367373 -0.049064536 0.055009328 0.069696665
000280 00 e9 6b bc 49 23 f8 bd 38 46 d3 bc ac 5b bb 3a
       -0.014398813 -0.12116105 -0.025790319 0.0014294288
000290 c6 ad 62 3d b3 7c 5b bd 21 65 10 3d ee 53 48 ba
       0.055341505 -0.05358572 0.035252694 -0.0007641901
0002a0 3e 96 b0 bd c5 05 44 3d ab 74 e6 3c 08 bb b7 bc
       -0.086224064 0.047857065 0.028131803 -0.02242805
0002b0 58 30 aa b8 ae d3 01 3d 53 89 b7 3b 71 ad ab 3d
       -8.1152364e-05 0.031696014 0.005601087 0.08382691
0002c0 2f 8c e8 bc 8c a5 41 3d 14 c1 3e bd 02 0d 20 3d
       -0.028387157 0.04727702 -0.046570852 0.039074905
0002d0 fe 70 fc 3c 68 e8 8a bc 02 48 9e 3c a2 74 87 3d
       0.030815598 -0.016956523 0.019321445 0.06614043
0002e0 cd 17 b3 39 27 26 3f 3d da 6f ad 3d aa b1 c1 3d
       0.00034159273 0.046667244 0.084685996 0.09457715
0002f0 06 b2 69 bd 15 db 40 bc d8 30 8e 3d 10 10 55 bd
       -0.057054542 -0.011770983 0.0694291 -0.05201727
000300 c6 ce d1 ba 13 3a f9 ba 48 6b 91 3d ac c8 15 3d
       -0.0016007058 -0.00190145 0.071005404 0.03656833
000310 a8 8d b2 bd 0e b7 9e 3d a7 a1 50 bb a9 e6 c2 3d
       -0.08718425 0.07749759 -0.0031834634 0.09516651
000320 79 d8 07 be 6a 92 25 3c 00 54 37 3d 0e 7f 0a 3b
       -0.13266172 0.010105709 0.044757843 0.002113286
000330 40 cd e2 bc 9b bf 4b 3d 24 bb c3 3c 93 bb 53 bd
       -0.027685761 0.049743276 0.023892947 -0.051692557
000340 cb 5a 43 bd 3b a7 fc 3c 28 0f 45 3d 91 44 12 3b
       -0.04769401 0.03084146 0.048110157 0.00223187
000350 ec cf 46 ba 3a 00 18 bc 2d 55 24 bc 18 b3 a7 bd
       -0.00075840834 -0.009277398 -0.010030073 -0.08188456
000360 a4 24 05 3d 6f 4e e9 3c d3 1b 17 3c 41 af 23 bc
       0.032505646 0.028479783 0.009222942 -0.009990514
000370 d6 fb 4d 3d 56 bd 3a 3d 8a 8d 95 bd 92 4e b8 3c
       0.050288998 0.04559072 -0.07302387 0.022498403
000380 69 db 08 3d e1 fd df bd 15 76 50 3d f7 d1 10 3b
       0.03341237 -0.109370954 0.05089386 0.0022097805
000390 96 30 ce 39 ae 2a e9 3d 5e 5e be bc d5 3b 8d 3d
       0.0003932758 0.11385094 -0.023238357 0.06896178
0003a0 e5 6a 73 bd e6 f3 cb bd d3 1a fe bd 7d 57 87 3d
       -0.059428114 -0.09958629 -0.1240746 0.06608484
0003b0 77 63 be bc 7d ff d1 3d 37 ac 57 bd 3c 5c 10 bb
       -0.023240788 0.10253809 -0.05265447 -0.0022027632
0003c0 9c 80 fd bd 6f 94 68 bd 29 49 0a bc 3a e0 51 bd
       -0.12378046 -0.056782182 -0.008440294 -0.05123923
0003d0 f4 58 8a 3d ac ef fc 3c a1 4b db bd 9d 4d a7 bd
       0.06755248 0.030876003 -0.107077844 -0.081691004
0003e0 ec d9 b0 3c 6e c1 ba bd 17 8f 04 bc a1 d7 54 bd
       0.021588288 -0.09118925 -0.008090756 -0.051963452
0003f0 64 6c 9a bd 5b 1f 99 3d 1e 4e 98 bd b4 81 8f bd
       -0.07540205 0.07476684 -0.07436775 -0.07007161

network.3.bias f4 [32]
000000 2f 3d e8 ba 6e 44 1f 3d 3c 70 14 3d 26 b0 84 3d
       -0.001771843 0.03888362 0.036239848 0.0647891
000010 86 31 df bb 7c 1d d4 3c 3e 21 0a bd 94 8c 1b 3d
       -0.0068113236 0.025892965 -0.03372311 0.037975863
000020 1d 59 f3 3d c9 8e d8 3c 12 b9 00 be 86 f5 b4 bd
       0.118822314 0.026435273 -0.12570599 -0.088358924
000030 a5 63 0e bd 9b 4e ac bd f4 d3 30 bd eb 8d c5 3c
       -0.034762997 -0.0841343 -0.043170884 0.024115523
000040 3d 59 05 bd 25 a7 8c bd a3 9f 8f bc 22 13 3f 3d
       -0.032555807 -0.06867818 -0.017532175 0.046649106
000050 cc fd 27 bd 6c 86 bb 3c 50 f3 bc 3d cf 4c c9 3d
       -0.041013524 0.022891246 0.09226096 0.09829103
000060 28 1e d9 bd 8c c2 73 3c 14 24 a5 bd 9c d3 39 3d
       -0.10601455 0.014877927 -0.08063522 0.045367822
000070 50 08 55 3d fc e4 f9 bc 9a 25 a7 bd b1 8d b5 3d
       0.05200988 -0.030504696 -0.08161469 0.08864916

network.6.weight f4 [1, 32]
000000 5e c1 d6 3d 18 8e 44 3c c2 5c 22 be e9 47 05 be
       0.104861006 0.011996768 -0.15855697 -0.13015713
000010 99 32 1e bd ca 1c 8b bd b9 57 82 bd ef 96 06 3e
       -0.038622472 -0.067926005 -0.06364388 0.13143514
000020 4e dc de 3c f1 df 57 bd 3f 78 a2 bd ec e8 1e be
       0.027204659 -0.0527038 -0.07933091 -0.1551854
000030 5e 40 b5 bd 2d 0c a5 3d 75 2c 1d be 66 85 16 3d
       -0.08850168 0.08058963 -0.1534899 0.036748312
000040 5b e2 7c bc 6b 96 0b 3d 3f fe 1b 3e 1d 0c 4e bd
       -0.015434827 0.034078997 0.15233706 -0.05030452
000050 2d e9 84 bd e8 30 7f bd ab 13 14 3e 1b 6e 9d 3b
       -0.06489787 -0.0623025 0.14460628 0.0048043854
000060 b4 fb 03 bd 85 30 13 be 69 9f d2 bc b9 2d 6c 3d
       -0.032222465 -0.14373977 -0.025710778 0.057660792
000070 64 9d 8e bc 5e 77 58 3d 1e e6 7b 3d b7 6f 93 3d
       -0.017409034 0.052848212 0.061498754 0.07199042
